[Diffuser(
  (vae): AutoencoderKL(
    (encoder): Encoder(
      (conv_in): Conv2d(3, 128, kernel_size=(3, 3), stride=(1, 1), padding=(1, 1))
      (down_blocks): ModuleList(
        (0): DownEncoderBlock2D(
          (resnets): ModuleList(
            (0-1): 2 x ResnetBlock2D(
              (norm1): GroupNorm(32, 128, eps=1e-06, affine=True)
              (conv1): Conv2d(128, 128, kernel_size=(3, 3), stride=(1, 1), padding=(1, 1))
              (norm2): GroupNorm(32, 128, eps=1e-06, affine=True)
              (dropout): Dropout(p=0.0, inplace=False)
              (conv2): Conv2d(128, 128, kernel_size=(3, 3), stride=(1, 1), padding=(1, 1))
              (nonlinearity): SiLU()
            )
          )
          (downsamplers): ModuleList(
            (0): Downsample2D(
              (conv): Conv2d(128, 128, kernel_size=(3, 3), stride=(2, 2))
            )
          )
        )
        (1): DownEncoderBlock2D(
          (resnets): ModuleList(
            (0): ResnetBlock2D(
              (norm1): GroupNorm(32, 128, eps=1e-06, affine=True)
              (conv1): Conv2d(128, 256, kernel_size=(3, 3), stride=(1, 1), padding=(1, 1))
              (norm2): GroupNorm(32, 256, eps=1e-06, affine=True)
              (dropout): Dropout(p=0.0, inplace=False)
              (conv2): Conv2d(256, 256, kernel_size=(3, 3), stride=(1, 1), padding=(1, 1))
              (nonlinearity): SiLU()
              (conv_shortcut): Conv2d(128, 256, kernel_size=(1, 1), stride=(1, 1))
            )
            (1): ResnetBlock2D(
              (norm1): GroupNorm(32, 256, eps=1e-06, affine=True)
              (conv1): Conv2d(256, 256, kernel_size=(3, 3), stride=(1, 1), padding=(1, 1))
              (norm2): GroupNorm(32, 256, eps=1e-06, affine=True)
              (dropout): Dropout(p=0.0, inplace=False)
              (conv2): Conv2d(256, 256, kernel_size=(3, 3), stride=(1, 1), padding=(1, 1))
              (nonlinearity): SiLU()
            )
          )
          (downsamplers): ModuleList(
            (0): Downsample2D(
              (conv): Conv2d(256, 256, kernel_size=(3, 3), stride=(2, 2))
            )
          )
        )
        (2): DownEncoderBlock2D(
          (resnets): ModuleList(
            (0): ResnetBlock2D(
              (norm1): GroupNorm(32, 256, eps=1e-06, affine=True)
              (conv1): Conv2d(256, 512, kernel_size=(3, 3), stride=(1, 1), padding=(1, 1))
              (norm2): GroupNorm(32, 512, eps=1e-06, affine=True)
              (dropout): Dropout(p=0.0, inplace=False)
              (conv2): Conv2d(512, 512, kernel_size=(3, 3), stride=(1, 1), padding=(1, 1))
              (nonlinearity): SiLU()
              (conv_shortcut): Conv2d(256, 512, kernel_size=(1, 1), stride=(1, 1))
            )
            (1): ResnetBlock2D(
              (norm1): GroupNorm(32, 512, eps=1e-06, affine=True)
              (conv1): Conv2d(512, 512, kernel_size=(3, 3), stride=(1, 1), padding=(1, 1))
              (norm2): GroupNorm(32, 512, eps=1e-06, affine=True)
              (dropout): Dropout(p=0.0, inplace=False)
              (conv2): Conv2d(512, 512, kernel_size=(3, 3), stride=(1, 1), padding=(1, 1))
              (nonlinearity): SiLU()
            )
          )
          (downsamplers): ModuleList(
            (0): Downsample2D(
              (conv): Conv2d(512, 512, kernel_size=(3, 3), stride=(2, 2))
            )
          )
        )
        (3): DownEncoderBlock2D(
          (resnets): ModuleList(
            (0-1): 2 x ResnetBlock2D(
              (norm1): GroupNorm(32, 512, eps=1e-06, affine=True)
              (conv1): Conv2d(512, 512, kernel_size=(3, 3), stride=(1, 1), padding=(1, 1))
              (norm2): GroupNorm(32, 512, eps=1e-06, affine=True)
              (dropout): Dropout(p=0.0, inplace=False)
              (conv2): Conv2d(512, 512, kernel_size=(3, 3), stride=(1, 1), padding=(1, 1))
              (nonlinearity): SiLU()
            )
          )
        )
      )
      (mid_block): UNetMidBlock2D(
        (attentions): ModuleList(
          (0): Attention(
            (group_norm): GroupNorm(32, 512, eps=1e-06, affine=True)
            (to_q): Linear(in_features=512, out_features=512, bias=True)
            (to_k): Linear(in_features=512, out_features=512, bias=True)
            (to_v): Linear(in_features=512, out_features=512, bias=True)
            (to_out): ModuleList(
              (0): Linear(in_features=512, out_features=512, bias=True)
              (1): Dropout(p=0.0, inplace=False)
            )
          )
        )
        (resnets): ModuleList(
          (0-1): 2 x ResnetBlock2D(
            (norm1): GroupNorm(32, 512, eps=1e-06, affine=True)
            (conv1): Conv2d(512, 512, kernel_size=(3, 3), stride=(1, 1), padding=(1, 1))
            (norm2): GroupNorm(32, 512, eps=1e-06, affine=True)
            (dropout): Dropout(p=0.0, inplace=False)
            (conv2): Conv2d(512, 512, kernel_size=(3, 3), stride=(1, 1), padding=(1, 1))
            (nonlinearity): SiLU()
          )
        )
      )
      (conv_norm_out): GroupNorm(32, 512, eps=1e-06, affine=True)
      (conv_act): SiLU()
      (conv_out): Conv2d(512, 8, kernel_size=(3, 3), stride=(1, 1), padding=(1, 1))
    )
    (decoder): Decoder(
      (conv_in): Conv2d(4, 512, kernel_size=(3, 3), stride=(1, 1), padding=(1, 1))
      (up_blocks): ModuleList(
        (0-1): 2 x UpDecoderBlock2D(
          (resnets): ModuleList(
            (0-2): 3 x ResnetBlock2D(
              (norm1): GroupNorm(32, 512, eps=1e-06, affine=True)
              (conv1): Conv2d(512, 512, kernel_size=(3, 3), stride=(1, 1), padding=(1, 1))
              (norm2): GroupNorm(32, 512, eps=1e-06, affine=True)
              (dropout): Dropout(p=0.0, inplace=False)
              (conv2): Conv2d(512, 512, kernel_size=(3, 3), stride=(1, 1), padding=(1, 1))
              (nonlinearity): SiLU()
            )
          )
          (upsamplers): ModuleList(
            (0): Upsample2D(
              (conv): Conv2d(512, 512, kernel_size=(3, 3), stride=(1, 1), padding=(1, 1))
            )
          )
        )
        (2): UpDecoderBlock2D(
          (resnets): ModuleList(
            (0): ResnetBlock2D(
              (norm1): GroupNorm(32, 512, eps=1e-06, affine=True)
              (conv1): Conv2d(512, 256, kernel_size=(3, 3), stride=(1, 1), padding=(1, 1))
              (norm2): GroupNorm(32, 256, eps=1e-06, affine=True)
              (dropout): Dropout(p=0.0, inplace=False)
              (conv2): Conv2d(256, 256, kernel_size=(3, 3), stride=(1, 1), padding=(1, 1))
              (nonlinearity): SiLU()
              (conv_shortcut): Conv2d(512, 256, kernel_size=(1, 1), stride=(1, 1))
            )
            (1-2): 2 x ResnetBlock2D(
              (norm1): GroupNorm(32, 256, eps=1e-06, affine=True)
              (conv1): Conv2d(256, 256, kernel_size=(3, 3), stride=(1, 1), padding=(1, 1))
              (norm2): GroupNorm(32, 256, eps=1e-06, affine=True)
              (dropout): Dropout(p=0.0, inplace=False)
              (conv2): Conv2d(256, 256, kernel_size=(3, 3), stride=(1, 1), padding=(1, 1))
              (nonlinearity): SiLU()
            )
          )
          (upsamplers): ModuleList(
            (0): Upsample2D(
              (conv): Conv2d(256, 256, kernel_size=(3, 3), stride=(1, 1), padding=(1, 1))
            )
          )
        )
        (3): UpDecoderBlock2D(
          (resnets): ModuleList(
            (0): ResnetBlock2D(
              (norm1): GroupNorm(32, 256, eps=1e-06, affine=True)
              (conv1): Conv2d(256, 128, kernel_size=(3, 3), stride=(1, 1), padding=(1, 1))
              (norm2): GroupNorm(32, 128, eps=1e-06, affine=True)
              (dropout): Dropout(p=0.0, inplace=False)
              (conv2): Conv2d(128, 128, kernel_size=(3, 3), stride=(1, 1), padding=(1, 1))
              (nonlinearity): SiLU()
              (conv_shortcut): Conv2d(256, 128, kernel_size=(1, 1), stride=(1, 1))
            )
            (1-2): 2 x ResnetBlock2D(
              (norm1): GroupNorm(32, 128, eps=1e-06, affine=True)
              (conv1): Conv2d(128, 128, kernel_size=(3, 3), stride=(1, 1), padding=(1, 1))
              (norm2): GroupNorm(32, 128, eps=1e-06, affine=True)
              (dropout): Dropout(p=0.0, inplace=False)
              (conv2): Conv2d(128, 128, kernel_size=(3, 3), stride=(1, 1), padding=(1, 1))
              (nonlinearity): SiLU()
            )
          )
        )
      )
      (mid_block): UNetMidBlock2D(
        (attentions): ModuleList(
          (0): Attention(
            (group_norm): GroupNorm(32, 512, eps=1e-06, affine=True)
            (to_q): Linear(in_features=512, out_features=512, bias=True)
            (to_k): Linear(in_features=512, out_features=512, bias=True)
            (to_v): Linear(in_features=512, out_features=512, bias=True)
            (to_out): ModuleList(
              (0): Linear(in_features=512, out_features=512, bias=True)
              (1): Dropout(p=0.0, inplace=False)
            )
          )
        )
        (resnets): ModuleList(
          (0-1): 2 x ResnetBlock2D(
            (norm1): GroupNorm(32, 512, eps=1e-06, affine=True)
            (conv1): Conv2d(512, 512, kernel_size=(3, 3), stride=(1, 1), padding=(1, 1))
            (norm2): GroupNorm(32, 512, eps=1e-06, affine=True)
            (dropout): Dropout(p=0.0, inplace=False)
            (conv2): Conv2d(512, 512, kernel_size=(3, 3), stride=(1, 1), padding=(1, 1))
            (nonlinearity): SiLU()
          )
        )
      )
      (conv_norm_out): GroupNorm(32, 128, eps=1e-06, affine=True)
      (conv_act): SiLU()
      (conv_out): Conv2d(128, 3, kernel_size=(3, 3), stride=(1, 1), padding=(1, 1))
    )
    (quant_conv): Conv2d(8, 8, kernel_size=(1, 1), stride=(1, 1))
    (post_quant_conv): Conv2d(4, 4, kernel_size=(1, 1), stride=(1, 1))
  )
  (text_encoder): CLIPTextModel(
    (text_model): CLIPTextTransformer(
      (embeddings): CLIPTextEmbeddings(
        (token_embedding): Embedding(49408, 768)
        (position_embedding): Embedding(77, 768)
      )
      (encoder): CLIPEncoder(
        (layers): ModuleList(
          (0-11): 12 x CLIPEncoderLayer(
            (self_attn): CLIPAttention(
              (k_proj): Linear(in_features=768, out_features=768, bias=True)
              (v_proj): Linear(in_features=768, out_features=768, bias=True)
              (q_proj): Linear(in_features=768, out_features=768, bias=True)
              (out_proj): Linear(in_features=768, out_features=768, bias=True)
            )
            (layer_norm1): LayerNorm((768,), eps=1e-05, elementwise_affine=True)
            (mlp): CLIPMLP(
              (activation_fn): QuickGELUActivation()
              (fc1): Linear(in_features=768, out_features=3072, bias=True)
              (fc2): Linear(in_features=3072, out_features=768, bias=True)
            )
            (layer_norm2): LayerNorm((768,), eps=1e-05, elementwise_affine=True)
          )
        )
      )
      (final_layer_norm): LayerNorm((768,), eps=1e-05, elementwise_affine=True)
    )
  )
  (unet): UNet2DConditionModel(
    (conv_in): Conv2d(4, 320, kernel_size=(3, 3), stride=(1, 1), padding=(1, 1))
    (time_proj): Timesteps()
    (time_embedding): TimestepEmbedding(
      (linear_1): Linear(in_features=320, out_features=1280, bias=True)
      (act): SiLU()
      (linear_2): Linear(in_features=1280, out_features=1280, bias=True)
    )
    (down_blocks): ModuleList(
      (0): CrossAttnDownBlock2D(
        (attentions): ModuleList(
          (0-1): 2 x Transformer2DModel(
            (norm): GroupNorm(32, 320, eps=1e-06, affine=True)
            (proj_in): Conv2d(320, 320, kernel_size=(1, 1), stride=(1, 1))
            (transformer_blocks): ModuleList(
              (0): BasicTransformerBlock(
                (norm1): LayerNorm((320,), eps=1e-05, elementwise_affine=True)
                (attn1): Attention(
                  (to_q): Linear(in_features=320, out_features=320, bias=False)
                  (to_k): Linear(in_features=320, out_features=320, bias=False)
                  (to_v): Linear(in_features=320, out_features=320, bias=False)
                  (to_out): ModuleList(
                    (0): Linear(in_features=320, out_features=320, bias=True)
                    (1): Dropout(p=0.0, inplace=False)
                  )
                )
                (norm2): LayerNorm((320,), eps=1e-05, elementwise_affine=True)
                (attn2): Attention(
                  (to_q): Linear(in_features=320, out_features=320, bias=False)
                  (to_k): Linear(in_features=768, out_features=320, bias=False)
                  (to_v): Linear(in_features=768, out_features=320, bias=False)
                  (to_out): ModuleList(
                    (0): Linear(in_features=320, out_features=320, bias=True)
                    (1): Dropout(p=0.0, inplace=False)
                  )
                )
                (norm3): LayerNorm((320,), eps=1e-05, elementwise_affine=True)
                (ff): FeedForward(
                  (net): ModuleList(
                    (0): GEGLU(
                      (proj): Linear(in_features=320, out_features=2560, bias=True)
                    )
                    (1): Dropout(p=0.0, inplace=False)
                    (2): Linear(in_features=1280, out_features=320, bias=True)
                  )
                )
              )
            )
            (proj_out): Conv2d(320, 320, kernel_size=(1, 1), stride=(1, 1))
          )
        )
        (resnets): ModuleList(
          (0-1): 2 x ResnetBlock2D(
            (norm1): GroupNorm(32, 320, eps=1e-05, affine=True)
            (conv1): Conv2d(320, 320, kernel_size=(3, 3), stride=(1, 1), padding=(1, 1))
            (time_emb_proj): Linear(in_features=1280, out_features=320, bias=True)
            (norm2): GroupNorm(32, 320, eps=1e-05, affine=True)
            (dropout): Dropout(p=0.0, inplace=False)
            (conv2): Conv2d(320, 320, kernel_size=(3, 3), stride=(1, 1), padding=(1, 1))
            (nonlinearity): SiLU()
          )
        )
        (downsamplers): ModuleList(
          (0): Downsample2D(
            (conv): Conv2d(320, 320, kernel_size=(3, 3), stride=(2, 2), padding=(1, 1))
          )
        )
      )
      (1): CrossAttnDownBlock2D(
        (attentions): ModuleList(
          (0-1): 2 x Transformer2DModel(
            (norm): GroupNorm(32, 640, eps=1e-06, affine=True)
            (proj_in): Conv2d(640, 640, kernel_size=(1, 1), stride=(1, 1))
            (transformer_blocks): ModuleList(
              (0): BasicTransformerBlock(
                (norm1): LayerNorm((640,), eps=1e-05, elementwise_affine=True)
                (attn1): Attention(
                  (to_q): Linear(in_features=640, out_features=640, bias=False)
                  (to_k): Linear(in_features=640, out_features=640, bias=False)
                  (to_v): Linear(in_features=640, out_features=640, bias=False)
                  (to_out): ModuleList(
                    (0): Linear(in_features=640, out_features=640, bias=True)
                    (1): Dropout(p=0.0, inplace=False)
                  )
                )
                (norm2): LayerNorm((640,), eps=1e-05, elementwise_affine=True)
                (attn2): Attention(
                  (to_q): Linear(in_features=640, out_features=640, bias=False)
                  (to_k): Linear(in_features=768, out_features=640, bias=False)
                  (to_v): Linear(in_features=768, out_features=640, bias=False)
                  (to_out): ModuleList(
                    (0): Linear(in_features=640, out_features=640, bias=True)
                    (1): Dropout(p=0.0, inplace=False)
                  )
                )
                (norm3): LayerNorm((640,), eps=1e-05, elementwise_affine=True)
                (ff): FeedForward(
                  (net): ModuleList(
                    (0): GEGLU(
                      (proj): Linear(in_features=640, out_features=5120, bias=True)
                    )
                    (1): Dropout(p=0.0, inplace=False)
                    (2): Linear(in_features=2560, out_features=640, bias=True)
                  )
                )
              )
            )
            (proj_out): Conv2d(640, 640, kernel_size=(1, 1), stride=(1, 1))
          )
        )
        (resnets): ModuleList(
          (0): ResnetBlock2D(
            (norm1): GroupNorm(32, 320, eps=1e-05, affine=True)
            (conv1): Conv2d(320, 640, kernel_size=(3, 3), stride=(1, 1), padding=(1, 1))
            (time_emb_proj): Linear(in_features=1280, out_features=640, bias=True)
            (norm2): GroupNorm(32, 640, eps=1e-05, affine=True)
            (dropout): Dropout(p=0.0, inplace=False)
            (conv2): Conv2d(640, 640, kernel_size=(3, 3), stride=(1, 1), padding=(1, 1))
            (nonlinearity): SiLU()
            (conv_shortcut): Conv2d(320, 640, kernel_size=(1, 1), stride=(1, 1))
          )
          (1): ResnetBlock2D(
            (norm1): GroupNorm(32, 640, eps=1e-05, affine=True)
            (conv1): Conv2d(640, 640, kernel_size=(3, 3), stride=(1, 1), padding=(1, 1))
            (time_emb_proj): Linear(in_features=1280, out_features=640, bias=True)
            (norm2): GroupNorm(32, 640, eps=1e-05, affine=True)
            (dropout): Dropout(p=0.0, inplace=False)
            (conv2): Conv2d(640, 640, kernel_size=(3, 3), stride=(1, 1), padding=(1, 1))
            (nonlinearity): SiLU()
          )
        )
        (downsamplers): ModuleList(
          (0): Downsample2D(
            (conv): Conv2d(640, 640, kernel_size=(3, 3), stride=(2, 2), padding=(1, 1))
          )
        )
      )
      (2): CrossAttnDownBlock2D(
        (attentions): ModuleList(
          (0-1): 2 x Transformer2DModel(
            (norm): GroupNorm(32, 1280, eps=1e-06, affine=True)
            (proj_in): Conv2d(1280, 1280, kernel_size=(1, 1), stride=(1, 1))
            (transformer_blocks): ModuleList(
              (0): BasicTransformerBlock(
                (norm1): LayerNorm((1280,), eps=1e-05, elementwise_affine=True)
                (attn1): Attention(
                  (to_q): Linear(in_features=1280, out_features=1280, bias=False)
                  (to_k): Linear(in_features=1280, out_features=1280, bias=False)
                  (to_v): Linear(in_features=1280, out_features=1280, bias=False)
                  (to_out): ModuleList(
                    (0): Linear(in_features=1280, out_features=1280, bias=True)
                    (1): Dropout(p=0.0, inplace=False)
                  )
                )
                (norm2): LayerNorm((1280,), eps=1e-05, elementwise_affine=True)
                (attn2): Attention(
                  (to_q): Linear(in_features=1280, out_features=1280, bias=False)
                  (to_k): Linear(in_features=768, out_features=1280, bias=False)
                  (to_v): Linear(in_features=768, out_features=1280, bias=False)
                  (to_out): ModuleList(
                    (0): Linear(in_features=1280, out_features=1280, bias=True)
                    (1): Dropout(p=0.0, inplace=False)
                  )
                )
                (norm3): LayerNorm((1280,), eps=1e-05, elementwise_affine=True)
                (ff): FeedForward(
                  (net): ModuleList(
                    (0): GEGLU(
                      (proj): Linear(in_features=1280, out_features=10240, bias=True)
                    )
                    (1): Dropout(p=0.0, inplace=False)
                    (2): Linear(in_features=5120, out_features=1280, bias=True)
                  )
                )
              )
            )
            (proj_out): Conv2d(1280, 1280, kernel_size=(1, 1), stride=(1, 1))
          )
        )
        (resnets): ModuleList(
          (0): ResnetBlock2D(
            (norm1): GroupNorm(32, 640, eps=1e-05, affine=True)
            (conv1): Conv2d(640, 1280, kernel_size=(3, 3), stride=(1, 1), padding=(1, 1))
            (time_emb_proj): Linear(in_features=1280, out_features=1280, bias=True)
            (norm2): GroupNorm(32, 1280, eps=1e-05, affine=True)
            (dropout): Dropout(p=0.0, inplace=False)
            (conv2): Conv2d(1280, 1280, kernel_size=(3, 3), stride=(1, 1), padding=(1, 1))
            (nonlinearity): SiLU()
            (conv_shortcut): Conv2d(640, 1280, kernel_size=(1, 1), stride=(1, 1))
          )
          (1): ResnetBlock2D(
            (norm1): GroupNorm(32, 1280, eps=1e-05, affine=True)
            (conv1): Conv2d(1280, 1280, kernel_size=(3, 3), stride=(1, 1), padding=(1, 1))
            (time_emb_proj): Linear(in_features=1280, out_features=1280, bias=True)
            (norm2): GroupNorm(32, 1280, eps=1e-05, affine=True)
            (dropout): Dropout(p=0.0, inplace=False)
            (conv2): Conv2d(1280, 1280, kernel_size=(3, 3), stride=(1, 1), padding=(1, 1))
            (nonlinearity): SiLU()
          )
        )
        (downsamplers): ModuleList(
          (0): Downsample2D(
            (conv): Conv2d(1280, 1280, kernel_size=(3, 3), stride=(2, 2), padding=(1, 1))
          )
        )
      )
      (3): DownBlock2D(
        (resnets): ModuleList(
          (0-1): 2 x ResnetBlock2D(
            (norm1): GroupNorm(32, 1280, eps=1e-05, affine=True)
            (conv1): Conv2d(1280, 1280, kernel_size=(3, 3), stride=(1, 1), padding=(1, 1))
            (time_emb_proj): Linear(in_features=1280, out_features=1280, bias=True)
            (norm2): GroupNorm(32, 1280, eps=1e-05, affine=True)
            (dropout): Dropout(p=0.0, inplace=False)
            (conv2): Conv2d(1280, 1280, kernel_size=(3, 3), stride=(1, 1), padding=(1, 1))
            (nonlinearity): SiLU()
          )
        )
      )
    )
    (up_blocks): ModuleList(
      (0): UpBlock2D(
        (resnets): ModuleList(
          (0-2): 3 x ResnetBlock2D(
            (norm1): GroupNorm(32, 2560, eps=1e-05, affine=True)
            (conv1): Conv2d(2560, 1280, kernel_size=(3, 3), stride=(1, 1), padding=(1, 1))
            (time_emb_proj): Linear(in_features=1280, out_features=1280, bias=True)
            (norm2): GroupNorm(32, 1280, eps=1e-05, affine=True)
            (dropout): Dropout(p=0.0, inplace=False)
            (conv2): Conv2d(1280, 1280, kernel_size=(3, 3), stride=(1, 1), padding=(1, 1))
            (nonlinearity): SiLU()
            (conv_shortcut): Conv2d(2560, 1280, kernel_size=(1, 1), stride=(1, 1))
          )
        )
        (upsamplers): ModuleList(
          (0): Upsample2D(
            (conv): Conv2d(1280, 1280, kernel_size=(3, 3), stride=(1, 1), padding=(1, 1))
          )
        )
      )
      (1): CrossAttnUpBlock2D(
        (attentions): ModuleList(
          (0-2): 3 x Transformer2DModel(
            (norm): GroupNorm(32, 1280, eps=1e-06, affine=True)
            (proj_in): Conv2d(1280, 1280, kernel_size=(1, 1), stride=(1, 1))
            (transformer_blocks): ModuleList(
              (0): BasicTransformerBlock(
                (norm1): LayerNorm((1280,), eps=1e-05, elementwise_affine=True)
                (attn1): Attention(
                  (to_q): Linear(in_features=1280, out_features=1280, bias=False)
                  (to_k): Linear(in_features=1280, out_features=1280, bias=False)
                  (to_v): Linear(in_features=1280, out_features=1280, bias=False)
                  (to_out): ModuleList(
                    (0): Linear(in_features=1280, out_features=1280, bias=True)
                    (1): Dropout(p=0.0, inplace=False)
                  )
                )
                (norm2): LayerNorm((1280,), eps=1e-05, elementwise_affine=True)
                (attn2): Attention(
                  (to_q): Linear(in_features=1280, out_features=1280, bias=False)
                  (to_k): Linear(in_features=768, out_features=1280, bias=False)
                  (to_v): Linear(in_features=768, out_features=1280, bias=False)
                  (to_out): ModuleList(
                    (0): Linear(in_features=1280, out_features=1280, bias=True)
                    (1): Dropout(p=0.0, inplace=False)
                  )
                )
                (norm3): LayerNorm((1280,), eps=1e-05, elementwise_affine=True)
                (ff): FeedForward(
                  (net): ModuleList(
                    (0): GEGLU(
                      (proj): Linear(in_features=1280, out_features=10240, bias=True)
                    )
                    (1): Dropout(p=0.0, inplace=False)
                    (2): Linear(in_features=5120, out_features=1280, bias=True)
                  )
                )
              )
            )
            (proj_out): Conv2d(1280, 1280, kernel_size=(1, 1), stride=(1, 1))
          )
        )
        (resnets): ModuleList(
          (0-1): 2 x ResnetBlock2D(
            (norm1): GroupNorm(32, 2560, eps=1e-05, affine=True)
            (conv1): Conv2d(2560, 1280, kernel_size=(3, 3), stride=(1, 1), padding=(1, 1))
            (time_emb_proj): Linear(in_features=1280, out_features=1280, bias=True)
            (norm2): GroupNorm(32, 1280, eps=1e-05, affine=True)
            (dropout): Dropout(p=0.0, inplace=False)
            (conv2): Conv2d(1280, 1280, kernel_size=(3, 3), stride=(1, 1), padding=(1, 1))
            (nonlinearity): SiLU()
            (conv_shortcut): Conv2d(2560, 1280, kernel_size=(1, 1), stride=(1, 1))
          )
          (2): ResnetBlock2D(
            (norm1): GroupNorm(32, 1920, eps=1e-05, affine=True)
            (conv1): Conv2d(1920, 1280, kernel_size=(3, 3), stride=(1, 1), padding=(1, 1))
            (time_emb_proj): Linear(in_features=1280, out_features=1280, bias=True)
            (norm2): GroupNorm(32, 1280, eps=1e-05, affine=True)
            (dropout): Dropout(p=0.0, inplace=False)
            (conv2): Conv2d(1280, 1280, kernel_size=(3, 3), stride=(1, 1), padding=(1, 1))
            (nonlinearity): SiLU()
            (conv_shortcut): Conv2d(1920, 1280, kernel_size=(1, 1), stride=(1, 1))
          )
        )
        (upsamplers): ModuleList(
          (0): Upsample2D(
            (conv): Conv2d(1280, 1280, kernel_size=(3, 3), stride=(1, 1), padding=(1, 1))
          )
        )
      )
      (2): CrossAttnUpBlock2D(
        (attentions): ModuleList(
          (0-2): 3 x Transformer2DModel(
            (norm): GroupNorm(32, 640, eps=1e-06, affine=True)
            (proj_in): Conv2d(640, 640, kernel_size=(1, 1), stride=(1, 1))
            (transformer_blocks): ModuleList(
              (0): BasicTransformerBlock(
                (norm1): LayerNorm((640,), eps=1e-05, elementwise_affine=True)
                (attn1): Attention(
                  (to_q): Linear(in_features=640, out_features=640, bias=False)
                  (to_k): Linear(in_features=640, out_features=640, bias=False)
                  (to_v): Linear(in_features=640, out_features=640, bias=False)
                  (to_out): ModuleList(
                    (0): Linear(in_features=640, out_features=640, bias=True)
                    (1): Dropout(p=0.0, inplace=False)
                  )
                )
                (norm2): LayerNorm((640,), eps=1e-05, elementwise_affine=True)
                (attn2): Attention(
                  (to_q): Linear(in_features=640, out_features=640, bias=False)
                  (to_k): Linear(in_features=768, out_features=640, bias=False)
                  (to_v): Linear(in_features=768, out_features=640, bias=False)
                  (to_out): ModuleList(
                    (0): Linear(in_features=640, out_features=640, bias=True)
                    (1): Dropout(p=0.0, inplace=False)
                  )
                )
                (norm3): LayerNorm((640,), eps=1e-05, elementwise_affine=True)
                (ff): FeedForward(
                  (net): ModuleList(
                    (0): GEGLU(
                      (proj): Linear(in_features=640, out_features=5120, bias=True)
                    )
                    (1): Dropout(p=0.0, inplace=False)
                    (2): Linear(in_features=2560, out_features=640, bias=True)
                  )
                )
              )
            )
            (proj_out): Conv2d(640, 640, kernel_size=(1, 1), stride=(1, 1))
          )
        )
        (resnets): ModuleList(
          (0): ResnetBlock2D(
            (norm1): GroupNorm(32, 1920, eps=1e-05, affine=True)
            (conv1): Conv2d(1920, 640, kernel_size=(3, 3), stride=(1, 1), padding=(1, 1))
            (time_emb_proj): Linear(in_features=1280, out_features=640, bias=True)
            (norm2): GroupNorm(32, 640, eps=1e-05, affine=True)
            (dropout): Dropout(p=0.0, inplace=False)
            (conv2): Conv2d(640, 640, kernel_size=(3, 3), stride=(1, 1), padding=(1, 1))
            (nonlinearity): SiLU()
            (conv_shortcut): Conv2d(1920, 640, kernel_size=(1, 1), stride=(1, 1))
          )
          (1): ResnetBlock2D(
            (norm1): GroupNorm(32, 1280, eps=1e-05, affine=True)
            (conv1): Conv2d(1280, 640, kernel_size=(3, 3), stride=(1, 1), padding=(1, 1))
            (time_emb_proj): Linear(in_features=1280, out_features=640, bias=True)
            (norm2): GroupNorm(32, 640, eps=1e-05, affine=True)
            (dropout): Dropout(p=0.0, inplace=False)
            (conv2): Conv2d(640, 640, kernel_size=(3, 3), stride=(1, 1), padding=(1, 1))
            (nonlinearity): SiLU()
            (conv_shortcut): Conv2d(1280, 640, kernel_size=(1, 1), stride=(1, 1))
          )
          (2): ResnetBlock2D(
            (norm1): GroupNorm(32, 960, eps=1e-05, affine=True)
            (conv1): Conv2d(960, 640, kernel_size=(3, 3), stride=(1, 1), padding=(1, 1))
            (time_emb_proj): Linear(in_features=1280, out_features=640, bias=True)
            (norm2): GroupNorm(32, 640, eps=1e-05, affine=True)
            (dropout): Dropout(p=0.0, inplace=False)
            (conv2): Conv2d(640, 640, kernel_size=(3, 3), stride=(1, 1), padding=(1, 1))
            (nonlinearity): SiLU()
            (conv_shortcut): Conv2d(960, 640, kernel_size=(1, 1), stride=(1, 1))
          )
        )
        (upsamplers): ModuleList(
          (0): Upsample2D(
            (conv): Conv2d(640, 640, kernel_size=(3, 3), stride=(1, 1), padding=(1, 1))
          )
        )
      )
      (3): CrossAttnUpBlock2D(
        (attentions): ModuleList(
          (0-2): 3 x Transformer2DModel(
            (norm): GroupNorm(32, 320, eps=1e-06, affine=True)
            (proj_in): Conv2d(320, 320, kernel_size=(1, 1), stride=(1, 1))
            (transformer_blocks): ModuleList(
              (0): BasicTransformerBlock(
                (norm1): LayerNorm((320,), eps=1e-05, elementwise_affine=True)
                (attn1): Attention(
                  (to_q): Linear(in_features=320, out_features=320, bias=False)
                  (to_k): Linear(in_features=320, out_features=320, bias=False)
                  (to_v): Linear(in_features=320, out_features=320, bias=False)
                  (to_out): ModuleList(
                    (0): Linear(in_features=320, out_features=320, bias=True)
                    (1): Dropout(p=0.0, inplace=False)
                  )
                )
                (norm2): LayerNorm((320,), eps=1e-05, elementwise_affine=True)
                (attn2): Attention(
                  (to_q): Linear(in_features=320, out_features=320, bias=False)
                  (to_k): Linear(in_features=768, out_features=320, bias=False)
                  (to_v): Linear(in_features=768, out_features=320, bias=False)
                  (to_out): ModuleList(
                    (0): Linear(in_features=320, out_features=320, bias=True)
                    (1): Dropout(p=0.0, inplace=False)
                  )
                )
                (norm3): LayerNorm((320,), eps=1e-05, elementwise_affine=True)
                (ff): FeedForward(
                  (net): ModuleList(
                    (0): GEGLU(
                      (proj): Linear(in_features=320, out_features=2560, bias=True)
                    )
                    (1): Dropout(p=0.0, inplace=False)
                    (2): Linear(in_features=1280, out_features=320, bias=True)
                  )
                )
              )
            )
            (proj_out): Conv2d(320, 320, kernel_size=(1, 1), stride=(1, 1))
          )
        )
        (resnets): ModuleList(
          (0): ResnetBlock2D(
            (norm1): GroupNorm(32, 960, eps=1e-05, affine=True)
            (conv1): Conv2d(960, 320, kernel_size=(3, 3), stride=(1, 1), padding=(1, 1))
            (time_emb_proj): Linear(in_features=1280, out_features=320, bias=True)
            (norm2): GroupNorm(32, 320, eps=1e-05, affine=True)
            (dropout): Dropout(p=0.0, inplace=False)
            (conv2): Conv2d(320, 320, kernel_size=(3, 3), stride=(1, 1), padding=(1, 1))
            (nonlinearity): SiLU()
            (conv_shortcut): Conv2d(960, 320, kernel_size=(1, 1), stride=(1, 1))
          )
          (1-2): 2 x ResnetBlock2D(
            (norm1): GroupNorm(32, 640, eps=1e-05, affine=True)
            (conv1): Conv2d(640, 320, kernel_size=(3, 3), stride=(1, 1), padding=(1, 1))
            (time_emb_proj): Linear(in_features=1280, out_features=320, bias=True)
            (norm2): GroupNorm(32, 320, eps=1e-05, affine=True)
            (dropout): Dropout(p=0.0, inplace=False)
            (conv2): Conv2d(320, 320, kernel_size=(3, 3), stride=(1, 1), padding=(1, 1))
            (nonlinearity): SiLU()
            (conv_shortcut): Conv2d(640, 320, kernel_size=(1, 1), stride=(1, 1))
          )
        )
      )
    )
    (mid_block): UNetMidBlock2DCrossAttn(
      (attentions): ModuleList(
        (0): Transformer2DModel(
          (norm): GroupNorm(32, 1280, eps=1e-06, affine=True)
          (proj_in): Conv2d(1280, 1280, kernel_size=(1, 1), stride=(1, 1))
          (transformer_blocks): ModuleList(
            (0): BasicTransformerBlock(
              (norm1): LayerNorm((1280,), eps=1e-05, elementwise_affine=True)
              (attn1): Attention(
                (to_q): Linear(in_features=1280, out_features=1280, bias=False)
                (to_k): Linear(in_features=1280, out_features=1280, bias=False)
                (to_v): Linear(in_features=1280, out_features=1280, bias=False)
                (to_out): ModuleList(
                  (0): Linear(in_features=1280, out_features=1280, bias=True)
                  (1): Dropout(p=0.0, inplace=False)
                )
              )
              (norm2): LayerNorm((1280,), eps=1e-05, elementwise_affine=True)
              (attn2): Attention(
                (to_q): Linear(in_features=1280, out_features=1280, bias=False)
                (to_k): Linear(in_features=768, out_features=1280, bias=False)
                (to_v): Linear(in_features=768, out_features=1280, bias=False)
                (to_out): ModuleList(
                  (0): Linear(in_features=1280, out_features=1280, bias=True)
                  (1): Dropout(p=0.0, inplace=False)
                )
              )
              (norm3): LayerNorm((1280,), eps=1e-05, elementwise_affine=True)
              (ff): FeedForward(
                (net): ModuleList(
                  (0): GEGLU(
                    (proj): Linear(in_features=1280, out_features=10240, bias=True)
                  )
                  (1): Dropout(p=0.0, inplace=False)
                  (2): Linear(in_features=5120, out_features=1280, bias=True)
                )
              )
            )
          )
          (proj_out): Conv2d(1280, 1280, kernel_size=(1, 1), stride=(1, 1))
        )
      )
      (resnets): ModuleList(
        (0-1): 2 x ResnetBlock2D(
          (norm1): GroupNorm(32, 1280, eps=1e-05, affine=True)
          (conv1): Conv2d(1280, 1280, kernel_size=(3, 3), stride=(1, 1), padding=(1, 1))
          (time_emb_proj): Linear(in_features=1280, out_features=1280, bias=True)
          (norm2): GroupNorm(32, 1280, eps=1e-05, affine=True)
          (dropout): Dropout(p=0.0, inplace=False)
          (conv2): Conv2d(1280, 1280, kernel_size=(3, 3), stride=(1, 1), padding=(1, 1))
          (nonlinearity): SiLU()
        )
      )
    )
    (conv_norm_out): GroupNorm(32, 320, eps=1e-05, affine=True)
    (conv_act): SiLU()
    (conv_out): Conv2d(320, 4, kernel_size=(3, 3), stride=(1, 1), padding=(1, 1))
  )
  (safety_checker): StableDiffusionSafetyChecker(
    (vision_model): CLIPVisionModel(
      (vision_model): CLIPVisionTransformer(
        (embeddings): CLIPVisionEmbeddings(
          (patch_embedding): Conv2d(3, 1024, kernel_size=(14, 14), stride=(14, 14), bias=False)
          (position_embedding): Embedding(257, 1024)
        )
        (pre_layrnorm): LayerNorm((1024,), eps=1e-05, elementwise_affine=True)
        (encoder): CLIPEncoder(
          (layers): ModuleList(
            (0-23): 24 x CLIPEncoderLayer(
              (self_attn): CLIPAttention(
                (k_proj): Linear(in_features=1024, out_features=1024, bias=True)
                (v_proj): Linear(in_features=1024, out_features=1024, bias=True)
                (q_proj): Linear(in_features=1024, out_features=1024, bias=True)
                (out_proj): Linear(in_features=1024, out_features=1024, bias=True)
              )
              (layer_norm1): LayerNorm((1024,), eps=1e-05, elementwise_affine=True)
              (mlp): CLIPMLP(
                (activation_fn): QuickGELUActivation()
                (fc1): Linear(in_features=1024, out_features=4096, bias=True)
                (fc2): Linear(in_features=4096, out_features=1024, bias=True)
              )
              (layer_norm2): LayerNorm((1024,), eps=1e-05, elementwise_affine=True)
            )
          )
        )
        (post_layernorm): LayerNorm((1024,), eps=1e-05, elementwise_affine=True)
      )
    )
    (visual_projection): Linear(in_features=1024, out_features=768, bias=False)
  )
), AutoencoderKL(
  (encoder): Encoder(
    (conv_in): Conv2d(3, 128, kernel_size=(3, 3), stride=(1, 1), padding=(1, 1))
    (down_blocks): ModuleList(
      (0): DownEncoderBlock2D(
        (resnets): ModuleList(
          (0-1): 2 x ResnetBlock2D(
            (norm1): GroupNorm(32, 128, eps=1e-06, affine=True)
            (conv1): Conv2d(128, 128, kernel_size=(3, 3), stride=(1, 1), padding=(1, 1))
            (norm2): GroupNorm(32, 128, eps=1e-06, affine=True)
            (dropout): Dropout(p=0.0, inplace=False)
            (conv2): Conv2d(128, 128, kernel_size=(3, 3), stride=(1, 1), padding=(1, 1))
            (nonlinearity): SiLU()
          )
        )
        (downsamplers): ModuleList(
          (0): Downsample2D(
            (conv): Conv2d(128, 128, kernel_size=(3, 3), stride=(2, 2))
          )
        )
      )
      (1): DownEncoderBlock2D(
        (resnets): ModuleList(
          (0): ResnetBlock2D(
            (norm1): GroupNorm(32, 128, eps=1e-06, affine=True)
            (conv1): Conv2d(128, 256, kernel_size=(3, 3), stride=(1, 1), padding=(1, 1))
            (norm2): GroupNorm(32, 256, eps=1e-06, affine=True)
            (dropout): Dropout(p=0.0, inplace=False)
            (conv2): Conv2d(256, 256, kernel_size=(3, 3), stride=(1, 1), padding=(1, 1))
            (nonlinearity): SiLU()
            (conv_shortcut): Conv2d(128, 256, kernel_size=(1, 1), stride=(1, 1))
          )
          (1): ResnetBlock2D(
            (norm1): GroupNorm(32, 256, eps=1e-06, affine=True)
            (conv1): Conv2d(256, 256, kernel_size=(3, 3), stride=(1, 1), padding=(1, 1))
            (norm2): GroupNorm(32, 256, eps=1e-06, affine=True)
            (dropout): Dropout(p=0.0, inplace=False)
            (conv2): Conv2d(256, 256, kernel_size=(3, 3), stride=(1, 1), padding=(1, 1))
            (nonlinearity): SiLU()
          )
        )
        (downsamplers): ModuleList(
          (0): Downsample2D(
            (conv): Conv2d(256, 256, kernel_size=(3, 3), stride=(2, 2))
          )
        )
      )
      (2): DownEncoderBlock2D(
        (resnets): ModuleList(
          (0): ResnetBlock2D(
            (norm1): GroupNorm(32, 256, eps=1e-06, affine=True)
            (conv1): Conv2d(256, 512, kernel_size=(3, 3), stride=(1, 1), padding=(1, 1))
            (norm2): GroupNorm(32, 512, eps=1e-06, affine=True)
            (dropout): Dropout(p=0.0, inplace=False)
            (conv2): Conv2d(512, 512, kernel_size=(3, 3), stride=(1, 1), padding=(1, 1))
            (nonlinearity): SiLU()
            (conv_shortcut): Conv2d(256, 512, kernel_size=(1, 1), stride=(1, 1))
          )
          (1): ResnetBlock2D(
            (norm1): GroupNorm(32, 512, eps=1e-06, affine=True)
            (conv1): Conv2d(512, 512, kernel_size=(3, 3), stride=(1, 1), padding=(1, 1))
            (norm2): GroupNorm(32, 512, eps=1e-06, affine=True)
            (dropout): Dropout(p=0.0, inplace=False)
            (conv2): Conv2d(512, 512, kernel_size=(3, 3), stride=(1, 1), padding=(1, 1))
            (nonlinearity): SiLU()
          )
        )
        (downsamplers): ModuleList(
          (0): Downsample2D(
            (conv): Conv2d(512, 512, kernel_size=(3, 3), stride=(2, 2))
          )
        )
      )
      (3): DownEncoderBlock2D(
        (resnets): ModuleList(
          (0-1): 2 x ResnetBlock2D(
            (norm1): GroupNorm(32, 512, eps=1e-06, affine=True)
            (conv1): Conv2d(512, 512, kernel_size=(3, 3), stride=(1, 1), padding=(1, 1))
            (norm2): GroupNorm(32, 512, eps=1e-06, affine=True)
            (dropout): Dropout(p=0.0, inplace=False)
            (conv2): Conv2d(512, 512, kernel_size=(3, 3), stride=(1, 1), padding=(1, 1))
            (nonlinearity): SiLU()
          )
        )
      )
    )
    (mid_block): UNetMidBlock2D(
      (attentions): ModuleList(
        (0): Attention(
          (group_norm): GroupNorm(32, 512, eps=1e-06, affine=True)
          (to_q): Linear(in_features=512, out_features=512, bias=True)
          (to_k): Linear(in_features=512, out_features=512, bias=True)
          (to_v): Linear(in_features=512, out_features=512, bias=True)
          (to_out): ModuleList(
            (0): Linear(in_features=512, out_features=512, bias=True)
            (1): Dropout(p=0.0, inplace=False)
          )
        )
      )
      (resnets): ModuleList(
        (0-1): 2 x ResnetBlock2D(
          (norm1): GroupNorm(32, 512, eps=1e-06, affine=True)
          (conv1): Conv2d(512, 512, kernel_size=(3, 3), stride=(1, 1), padding=(1, 1))
          (norm2): GroupNorm(32, 512, eps=1e-06, affine=True)
          (dropout): Dropout(p=0.0, inplace=False)
          (conv2): Conv2d(512, 512, kernel_size=(3, 3), stride=(1, 1), padding=(1, 1))
          (nonlinearity): SiLU()
        )
      )
    )
    (conv_norm_out): GroupNorm(32, 512, eps=1e-06, affine=True)
    (conv_act): SiLU()
    (conv_out): Conv2d(512, 8, kernel_size=(3, 3), stride=(1, 1), padding=(1, 1))
  )
  (decoder): Decoder(
    (conv_in): Conv2d(4, 512, kernel_size=(3, 3), stride=(1, 1), padding=(1, 1))
    (up_blocks): ModuleList(
      (0-1): 2 x UpDecoderBlock2D(
        (resnets): ModuleList(
          (0-2): 3 x ResnetBlock2D(
            (norm1): GroupNorm(32, 512, eps=1e-06, affine=True)
            (conv1): Conv2d(512, 512, kernel_size=(3, 3), stride=(1, 1), padding=(1, 1))
            (norm2): GroupNorm(32, 512, eps=1e-06, affine=True)
            (dropout): Dropout(p=0.0, inplace=False)
            (conv2): Conv2d(512, 512, kernel_size=(3, 3), stride=(1, 1), padding=(1, 1))
            (nonlinearity): SiLU()
          )
        )
        (upsamplers): ModuleList(
          (0): Upsample2D(
            (conv): Conv2d(512, 512, kernel_size=(3, 3), stride=(1, 1), padding=(1, 1))
          )
        )
      )
      (2): UpDecoderBlock2D(
        (resnets): ModuleList(
          (0): ResnetBlock2D(
            (norm1): GroupNorm(32, 512, eps=1e-06, affine=True)
            (conv1): Conv2d(512, 256, kernel_size=(3, 3), stride=(1, 1), padding=(1, 1))
            (norm2): GroupNorm(32, 256, eps=1e-06, affine=True)
            (dropout): Dropout(p=0.0, inplace=False)
            (conv2): Conv2d(256, 256, kernel_size=(3, 3), stride=(1, 1), padding=(1, 1))
            (nonlinearity): SiLU()
            (conv_shortcut): Conv2d(512, 256, kernel_size=(1, 1), stride=(1, 1))
          )
          (1-2): 2 x ResnetBlock2D(
            (norm1): GroupNorm(32, 256, eps=1e-06, affine=True)
            (conv1): Conv2d(256, 256, kernel_size=(3, 3), stride=(1, 1), padding=(1, 1))
            (norm2): GroupNorm(32, 256, eps=1e-06, affine=True)
            (dropout): Dropout(p=0.0, inplace=False)
            (conv2): Conv2d(256, 256, kernel_size=(3, 3), stride=(1, 1), padding=(1, 1))
            (nonlinearity): SiLU()
          )
        )
        (upsamplers): ModuleList(
          (0): Upsample2D(
            (conv): Conv2d(256, 256, kernel_size=(3, 3), stride=(1, 1), padding=(1, 1))
          )
        )
      )
      (3): UpDecoderBlock2D(
        (resnets): ModuleList(
          (0): ResnetBlock2D(
            (norm1): GroupNorm(32, 256, eps=1e-06, affine=True)
            (conv1): Conv2d(256, 128, kernel_size=(3, 3), stride=(1, 1), padding=(1, 1))
            (norm2): GroupNorm(32, 128, eps=1e-06, affine=True)
            (dropout): Dropout(p=0.0, inplace=False)
            (conv2): Conv2d(128, 128, kernel_size=(3, 3), stride=(1, 1), padding=(1, 1))
            (nonlinearity): SiLU()
            (conv_shortcut): Conv2d(256, 128, kernel_size=(1, 1), stride=(1, 1))
          )
          (1-2): 2 x ResnetBlock2D(
            (norm1): GroupNorm(32, 128, eps=1e-06, affine=True)
            (conv1): Conv2d(128, 128, kernel_size=(3, 3), stride=(1, 1), padding=(1, 1))
            (norm2): GroupNorm(32, 128, eps=1e-06, affine=True)
            (dropout): Dropout(p=0.0, inplace=False)
            (conv2): Conv2d(128, 128, kernel_size=(3, 3), stride=(1, 1), padding=(1, 1))
            (nonlinearity): SiLU()
          )
        )
      )
    )
    (mid_block): UNetMidBlock2D(
      (attentions): ModuleList(
        (0): Attention(
          (group_norm): GroupNorm(32, 512, eps=1e-06, affine=True)
          (to_q): Linear(in_features=512, out_features=512, bias=True)
          (to_k): Linear(in_features=512, out_features=512, bias=True)
          (to_v): Linear(in_features=512, out_features=512, bias=True)
          (to_out): ModuleList(
            (0): Linear(in_features=512, out_features=512, bias=True)
            (1): Dropout(p=0.0, inplace=False)
          )
        )
      )
      (resnets): ModuleList(
        (0-1): 2 x ResnetBlock2D(
          (norm1): GroupNorm(32, 512, eps=1e-06, affine=True)
          (conv1): Conv2d(512, 512, kernel_size=(3, 3), stride=(1, 1), padding=(1, 1))
          (norm2): GroupNorm(32, 512, eps=1e-06, affine=True)
          (dropout): Dropout(p=0.0, inplace=False)
          (conv2): Conv2d(512, 512, kernel_size=(3, 3), stride=(1, 1), padding=(1, 1))
          (nonlinearity): SiLU()
        )
      )
    )
    (conv_norm_out): GroupNorm(32, 128, eps=1e-06, affine=True)
    (conv_act): SiLU()
    (conv_out): Conv2d(128, 3, kernel_size=(3, 3), stride=(1, 1), padding=(1, 1))
  )
  (quant_conv): Conv2d(8, 8, kernel_size=(1, 1), stride=(1, 1))
  (post_quant_conv): Conv2d(4, 4, kernel_size=(1, 1), stride=(1, 1))
), Encoder(
  (conv_in): Conv2d(3, 128, kernel_size=(3, 3), stride=(1, 1), padding=(1, 1))
  (down_blocks): ModuleList(
    (0): DownEncoderBlock2D(
      (resnets): ModuleList(
        (0-1): 2 x ResnetBlock2D(
          (norm1): GroupNorm(32, 128, eps=1e-06, affine=True)
          (conv1): Conv2d(128, 128, kernel_size=(3, 3), stride=(1, 1), padding=(1, 1))
          (norm2): GroupNorm(32, 128, eps=1e-06, affine=True)
          (dropout): Dropout(p=0.0, inplace=False)
          (conv2): Conv2d(128, 128, kernel_size=(3, 3), stride=(1, 1), padding=(1, 1))
          (nonlinearity): SiLU()
        )
      )
      (downsamplers): ModuleList(
        (0): Downsample2D(
          (conv): Conv2d(128, 128, kernel_size=(3, 3), stride=(2, 2))
        )
      )
    )
    (1): DownEncoderBlock2D(
      (resnets): ModuleList(
        (0): ResnetBlock2D(
          (norm1): GroupNorm(32, 128, eps=1e-06, affine=True)
          (conv1): Conv2d(128, 256, kernel_size=(3, 3), stride=(1, 1), padding=(1, 1))
          (norm2): GroupNorm(32, 256, eps=1e-06, affine=True)
          (dropout): Dropout(p=0.0, inplace=False)
          (conv2): Conv2d(256, 256, kernel_size=(3, 3), stride=(1, 1), padding=(1, 1))
          (nonlinearity): SiLU()
          (conv_shortcut): Conv2d(128, 256, kernel_size=(1, 1), stride=(1, 1))
        )
        (1): ResnetBlock2D(
          (norm1): GroupNorm(32, 256, eps=1e-06, affine=True)
          (conv1): Conv2d(256, 256, kernel_size=(3, 3), stride=(1, 1), padding=(1, 1))
          (norm2): GroupNorm(32, 256, eps=1e-06, affine=True)
          (dropout): Dropout(p=0.0, inplace=False)
          (conv2): Conv2d(256, 256, kernel_size=(3, 3), stride=(1, 1), padding=(1, 1))
          (nonlinearity): SiLU()
        )
      )
      (downsamplers): ModuleList(
        (0): Downsample2D(
          (conv): Conv2d(256, 256, kernel_size=(3, 3), stride=(2, 2))
        )
      )
    )
    (2): DownEncoderBlock2D(
      (resnets): ModuleList(
        (0): ResnetBlock2D(
          (norm1): GroupNorm(32, 256, eps=1e-06, affine=True)
          (conv1): Conv2d(256, 512, kernel_size=(3, 3), stride=(1, 1), padding=(1, 1))
          (norm2): GroupNorm(32, 512, eps=1e-06, affine=True)
          (dropout): Dropout(p=0.0, inplace=False)
          (conv2): Conv2d(512, 512, kernel_size=(3, 3), stride=(1, 1), padding=(1, 1))
          (nonlinearity): SiLU()
          (conv_shortcut): Conv2d(256, 512, kernel_size=(1, 1), stride=(1, 1))
        )
        (1): ResnetBlock2D(
          (norm1): GroupNorm(32, 512, eps=1e-06, affine=True)
          (conv1): Conv2d(512, 512, kernel_size=(3, 3), stride=(1, 1), padding=(1, 1))
          (norm2): GroupNorm(32, 512, eps=1e-06, affine=True)
          (dropout): Dropout(p=0.0, inplace=False)
          (conv2): Conv2d(512, 512, kernel_size=(3, 3), stride=(1, 1), padding=(1, 1))
          (nonlinearity): SiLU()
        )
      )
      (downsamplers): ModuleList(
        (0): Downsample2D(
          (conv): Conv2d(512, 512, kernel_size=(3, 3), stride=(2, 2))
        )
      )
    )
    (3): DownEncoderBlock2D(
      (resnets): ModuleList(
        (0-1): 2 x ResnetBlock2D(
          (norm1): GroupNorm(32, 512, eps=1e-06, affine=True)
          (conv1): Conv2d(512, 512, kernel_size=(3, 3), stride=(1, 1), padding=(1, 1))
          (norm2): GroupNorm(32, 512, eps=1e-06, affine=True)
          (dropout): Dropout(p=0.0, inplace=False)
          (conv2): Conv2d(512, 512, kernel_size=(3, 3), stride=(1, 1), padding=(1, 1))
          (nonlinearity): SiLU()
        )
      )
    )
  )
  (mid_block): UNetMidBlock2D(
    (attentions): ModuleList(
      (0): Attention(
        (group_norm): GroupNorm(32, 512, eps=1e-06, affine=True)
        (to_q): Linear(in_features=512, out_features=512, bias=True)
        (to_k): Linear(in_features=512, out_features=512, bias=True)
        (to_v): Linear(in_features=512, out_features=512, bias=True)
        (to_out): ModuleList(
          (0): Linear(in_features=512, out_features=512, bias=True)
          (1): Dropout(p=0.0, inplace=False)
        )
      )
    )
    (resnets): ModuleList(
      (0-1): 2 x ResnetBlock2D(
        (norm1): GroupNorm(32, 512, eps=1e-06, affine=True)
        (conv1): Conv2d(512, 512, kernel_size=(3, 3), stride=(1, 1), padding=(1, 1))
        (norm2): GroupNorm(32, 512, eps=1e-06, affine=True)
        (dropout): Dropout(p=0.0, inplace=False)
        (conv2): Conv2d(512, 512, kernel_size=(3, 3), stride=(1, 1), padding=(1, 1))
        (nonlinearity): SiLU()
      )
    )
  )
  (conv_norm_out): GroupNorm(32, 512, eps=1e-06, affine=True)
  (conv_act): SiLU()
  (conv_out): Conv2d(512, 8, kernel_size=(3, 3), stride=(1, 1), padding=(1, 1))
), Conv2d(3, 128, kernel_size=(3, 3), stride=(1, 1), padding=(1, 1)), ModuleList(
  (0): DownEncoderBlock2D(
    (resnets): ModuleList(
      (0-1): 2 x ResnetBlock2D(
        (norm1): GroupNorm(32, 128, eps=1e-06, affine=True)
        (conv1): Conv2d(128, 128, kernel_size=(3, 3), stride=(1, 1), padding=(1, 1))
        (norm2): GroupNorm(32, 128, eps=1e-06, affine=True)
        (dropout): Dropout(p=0.0, inplace=False)
        (conv2): Conv2d(128, 128, kernel_size=(3, 3), stride=(1, 1), padding=(1, 1))
        (nonlinearity): SiLU()
      )
    )
    (downsamplers): ModuleList(
      (0): Downsample2D(
        (conv): Conv2d(128, 128, kernel_size=(3, 3), stride=(2, 2))
      )
    )
  )
  (1): DownEncoderBlock2D(
    (resnets): ModuleList(
      (0): ResnetBlock2D(
        (norm1): GroupNorm(32, 128, eps=1e-06, affine=True)
        (conv1): Conv2d(128, 256, kernel_size=(3, 3), stride=(1, 1), padding=(1, 1))
        (norm2): GroupNorm(32, 256, eps=1e-06, affine=True)
        (dropout): Dropout(p=0.0, inplace=False)
        (conv2): Conv2d(256, 256, kernel_size=(3, 3), stride=(1, 1), padding=(1, 1))
        (nonlinearity): SiLU()
        (conv_shortcut): Conv2d(128, 256, kernel_size=(1, 1), stride=(1, 1))
      )
      (1): ResnetBlock2D(
        (norm1): GroupNorm(32, 256, eps=1e-06, affine=True)
        (conv1): Conv2d(256, 256, kernel_size=(3, 3), stride=(1, 1), padding=(1, 1))
        (norm2): GroupNorm(32, 256, eps=1e-06, affine=True)
        (dropout): Dropout(p=0.0, inplace=False)
        (conv2): Conv2d(256, 256, kernel_size=(3, 3), stride=(1, 1), padding=(1, 1))
        (nonlinearity): SiLU()
      )
    )
    (downsamplers): ModuleList(
      (0): Downsample2D(
        (conv): Conv2d(256, 256, kernel_size=(3, 3), stride=(2, 2))
      )
    )
  )
  (2): DownEncoderBlock2D(
    (resnets): ModuleList(
      (0): ResnetBlock2D(
        (norm1): GroupNorm(32, 256, eps=1e-06, affine=True)
        (conv1): Conv2d(256, 512, kernel_size=(3, 3), stride=(1, 1), padding=(1, 1))
        (norm2): GroupNorm(32, 512, eps=1e-06, affine=True)
        (dropout): Dropout(p=0.0, inplace=False)
        (conv2): Conv2d(512, 512, kernel_size=(3, 3), stride=(1, 1), padding=(1, 1))
        (nonlinearity): SiLU()
        (conv_shortcut): Conv2d(256, 512, kernel_size=(1, 1), stride=(1, 1))
      )
      (1): ResnetBlock2D(
        (norm1): GroupNorm(32, 512, eps=1e-06, affine=True)
        (conv1): Conv2d(512, 512, kernel_size=(3, 3), stride=(1, 1), padding=(1, 1))
        (norm2): GroupNorm(32, 512, eps=1e-06, affine=True)
        (dropout): Dropout(p=0.0, inplace=False)
        (conv2): Conv2d(512, 512, kernel_size=(3, 3), stride=(1, 1), padding=(1, 1))
        (nonlinearity): SiLU()
      )
    )
    (downsamplers): ModuleList(
      (0): Downsample2D(
        (conv): Conv2d(512, 512, kernel_size=(3, 3), stride=(2, 2))
      )
    )
  )
  (3): DownEncoderBlock2D(
    (resnets): ModuleList(
      (0-1): 2 x ResnetBlock2D(
        (norm1): GroupNorm(32, 512, eps=1e-06, affine=True)
        (conv1): Conv2d(512, 512, kernel_size=(3, 3), stride=(1, 1), padding=(1, 1))
        (norm2): GroupNorm(32, 512, eps=1e-06, affine=True)
        (dropout): Dropout(p=0.0, inplace=False)
        (conv2): Conv2d(512, 512, kernel_size=(3, 3), stride=(1, 1), padding=(1, 1))
        (nonlinearity): SiLU()
      )
    )
  )
), DownEncoderBlock2D(
  (resnets): ModuleList(
    (0-1): 2 x ResnetBlock2D(
      (norm1): GroupNorm(32, 128, eps=1e-06, affine=True)
      (conv1): Conv2d(128, 128, kernel_size=(3, 3), stride=(1, 1), padding=(1, 1))
      (norm2): GroupNorm(32, 128, eps=1e-06, affine=True)
      (dropout): Dropout(p=0.0, inplace=False)
      (conv2): Conv2d(128, 128, kernel_size=(3, 3), stride=(1, 1), padding=(1, 1))
      (nonlinearity): SiLU()
    )
  )
  (downsamplers): ModuleList(
    (0): Downsample2D(
      (conv): Conv2d(128, 128, kernel_size=(3, 3), stride=(2, 2))
    )
  )
), ModuleList(
  (0-1): 2 x ResnetBlock2D(
    (norm1): GroupNorm(32, 128, eps=1e-06, affine=True)
    (conv1): Conv2d(128, 128, kernel_size=(3, 3), stride=(1, 1), padding=(1, 1))
    (norm2): GroupNorm(32, 128, eps=1e-06, affine=True)
    (dropout): Dropout(p=0.0, inplace=False)
    (conv2): Conv2d(128, 128, kernel_size=(3, 3), stride=(1, 1), padding=(1, 1))
    (nonlinearity): SiLU()
  )
), ResnetBlock2D(
  (norm1): GroupNorm(32, 128, eps=1e-06, affine=True)
  (conv1): Conv2d(128, 128, kernel_size=(3, 3), stride=(1, 1), padding=(1, 1))
  (norm2): GroupNorm(32, 128, eps=1e-06, affine=True)
  (dropout): Dropout(p=0.0, inplace=False)
  (conv2): Conv2d(128, 128, kernel_size=(3, 3), stride=(1, 1), padding=(1, 1))
  (nonlinearity): SiLU()
), GroupNorm(32, 128, eps=1e-06, affine=True), Conv2d(128, 128, kernel_size=(3, 3), stride=(1, 1), padding=(1, 1)), GroupNorm(32, 128, eps=1e-06, affine=True), Dropout(p=0.0, inplace=False), Conv2d(128, 128, kernel_size=(3, 3), stride=(1, 1), padding=(1, 1)), SiLU(), ResnetBlock2D(
  (norm1): GroupNorm(32, 128, eps=1e-06, affine=True)
  (conv1): Conv2d(128, 128, kernel_size=(3, 3), stride=(1, 1), padding=(1, 1))
  (norm2): GroupNorm(32, 128, eps=1e-06, affine=True)
  (dropout): Dropout(p=0.0, inplace=False)
  (conv2): Conv2d(128, 128, kernel_size=(3, 3), stride=(1, 1), padding=(1, 1))
  (nonlinearity): SiLU()
), GroupNorm(32, 128, eps=1e-06, affine=True), Conv2d(128, 128, kernel_size=(3, 3), stride=(1, 1), padding=(1, 1)), GroupNorm(32, 128, eps=1e-06, affine=True), Dropout(p=0.0, inplace=False), Conv2d(128, 128, kernel_size=(3, 3), stride=(1, 1), padding=(1, 1)), SiLU(), ModuleList(
  (0): Downsample2D(
    (conv): Conv2d(128, 128, kernel_size=(3, 3), stride=(2, 2))
  )
), Downsample2D(
  (conv): Conv2d(128, 128, kernel_size=(3, 3), stride=(2, 2))
), Conv2d(128, 128, kernel_size=(3, 3), stride=(2, 2)), DownEncoderBlock2D(
  (resnets): ModuleList(
    (0): ResnetBlock2D(
      (norm1): GroupNorm(32, 128, eps=1e-06, affine=True)
      (conv1): Conv2d(128, 256, kernel_size=(3, 3), stride=(1, 1), padding=(1, 1))
      (norm2): GroupNorm(32, 256, eps=1e-06, affine=True)
      (dropout): Dropout(p=0.0, inplace=False)
      (conv2): Conv2d(256, 256, kernel_size=(3, 3), stride=(1, 1), padding=(1, 1))
      (nonlinearity): SiLU()
      (conv_shortcut): Conv2d(128, 256, kernel_size=(1, 1), stride=(1, 1))
    )
    (1): ResnetBlock2D(
      (norm1): GroupNorm(32, 256, eps=1e-06, affine=True)
      (conv1): Conv2d(256, 256, kernel_size=(3, 3), stride=(1, 1), padding=(1, 1))
      (norm2): GroupNorm(32, 256, eps=1e-06, affine=True)
      (dropout): Dropout(p=0.0, inplace=False)
      (conv2): Conv2d(256, 256, kernel_size=(3, 3), stride=(1, 1), padding=(1, 1))
      (nonlinearity): SiLU()
    )
  )
  (downsamplers): ModuleList(
    (0): Downsample2D(
      (conv): Conv2d(256, 256, kernel_size=(3, 3), stride=(2, 2))
    )
  )
), ModuleList(
  (0): ResnetBlock2D(
    (norm1): GroupNorm(32, 128, eps=1e-06, affine=True)
    (conv1): Conv2d(128, 256, kernel_size=(3, 3), stride=(1, 1), padding=(1, 1))
    (norm2): GroupNorm(32, 256, eps=1e-06, affine=True)
    (dropout): Dropout(p=0.0, inplace=False)
    (conv2): Conv2d(256, 256, kernel_size=(3, 3), stride=(1, 1), padding=(1, 1))
    (nonlinearity): SiLU()
    (conv_shortcut): Conv2d(128, 256, kernel_size=(1, 1), stride=(1, 1))
  )
  (1): ResnetBlock2D(
    (norm1): GroupNorm(32, 256, eps=1e-06, affine=True)
    (conv1): Conv2d(256, 256, kernel_size=(3, 3), stride=(1, 1), padding=(1, 1))
    (norm2): GroupNorm(32, 256, eps=1e-06, affine=True)
    (dropout): Dropout(p=0.0, inplace=False)
    (conv2): Conv2d(256, 256, kernel_size=(3, 3), stride=(1, 1), padding=(1, 1))
    (nonlinearity): SiLU()
  )
), ResnetBlock2D(
  (norm1): GroupNorm(32, 128, eps=1e-06, affine=True)
  (conv1): Conv2d(128, 256, kernel_size=(3, 3), stride=(1, 1), padding=(1, 1))
  (norm2): GroupNorm(32, 256, eps=1e-06, affine=True)
  (dropout): Dropout(p=0.0, inplace=False)
  (conv2): Conv2d(256, 256, kernel_size=(3, 3), stride=(1, 1), padding=(1, 1))
  (nonlinearity): SiLU()
  (conv_shortcut): Conv2d(128, 256, kernel_size=(1, 1), stride=(1, 1))
), GroupNorm(32, 128, eps=1e-06, affine=True), Conv2d(128, 256, kernel_size=(3, 3), stride=(1, 1), padding=(1, 1)), GroupNorm(32, 256, eps=1e-06, affine=True), Dropout(p=0.0, inplace=False), Conv2d(256, 256, kernel_size=(3, 3), stride=(1, 1), padding=(1, 1)), SiLU(), Conv2d(128, 256, kernel_size=(1, 1), stride=(1, 1)), ResnetBlock2D(
  (norm1): GroupNorm(32, 256, eps=1e-06, affine=True)
  (conv1): Conv2d(256, 256, kernel_size=(3, 3), stride=(1, 1), padding=(1, 1))
  (norm2): GroupNorm(32, 256, eps=1e-06, affine=True)
  (dropout): Dropout(p=0.0, inplace=False)
  (conv2): Conv2d(256, 256, kernel_size=(3, 3), stride=(1, 1), padding=(1, 1))
  (nonlinearity): SiLU()
), GroupNorm(32, 256, eps=1e-06, affine=True), Conv2d(256, 256, kernel_size=(3, 3), stride=(1, 1), padding=(1, 1)), GroupNorm(32, 256, eps=1e-06, affine=True), Dropout(p=0.0, inplace=False), Conv2d(256, 256, kernel_size=(3, 3), stride=(1, 1), padding=(1, 1)), SiLU(), ModuleList(
  (0): Downsample2D(
    (conv): Conv2d(256, 256, kernel_size=(3, 3), stride=(2, 2))
  )
), Downsample2D(
  (conv): Conv2d(256, 256, kernel_size=(3, 3), stride=(2, 2))
), Conv2d(256, 256, kernel_size=(3, 3), stride=(2, 2)), DownEncoderBlock2D(
  (resnets): ModuleList(
    (0): ResnetBlock2D(
      (norm1): GroupNorm(32, 256, eps=1e-06, affine=True)
      (conv1): Conv2d(256, 512, kernel_size=(3, 3), stride=(1, 1), padding=(1, 1))
      (norm2): GroupNorm(32, 512, eps=1e-06, affine=True)
      (dropout): Dropout(p=0.0, inplace=False)
      (conv2): Conv2d(512, 512, kernel_size=(3, 3), stride=(1, 1), padding=(1, 1))
      (nonlinearity): SiLU()
      (conv_shortcut): Conv2d(256, 512, kernel_size=(1, 1), stride=(1, 1))
    )
    (1): ResnetBlock2D(
      (norm1): GroupNorm(32, 512, eps=1e-06, affine=True)
      (conv1): Conv2d(512, 512, kernel_size=(3, 3), stride=(1, 1), padding=(1, 1))
      (norm2): GroupNorm(32, 512, eps=1e-06, affine=True)
      (dropout): Dropout(p=0.0, inplace=False)
      (conv2): Conv2d(512, 512, kernel_size=(3, 3), stride=(1, 1), padding=(1, 1))
      (nonlinearity): SiLU()
    )
  )
  (downsamplers): ModuleList(
    (0): Downsample2D(
      (conv): Conv2d(512, 512, kernel_size=(3, 3), stride=(2, 2))
    )
  )
), ModuleList(
  (0): ResnetBlock2D(
    (norm1): GroupNorm(32, 256, eps=1e-06, affine=True)
    (conv1): Conv2d(256, 512, kernel_size=(3, 3), stride=(1, 1), padding=(1, 1))
    (norm2): GroupNorm(32, 512, eps=1e-06, affine=True)
    (dropout): Dropout(p=0.0, inplace=False)
    (conv2): Conv2d(512, 512, kernel_size=(3, 3), stride=(1, 1), padding=(1, 1))
    (nonlinearity): SiLU()
    (conv_shortcut): Conv2d(256, 512, kernel_size=(1, 1), stride=(1, 1))
  )
  (1): ResnetBlock2D(
    (norm1): GroupNorm(32, 512, eps=1e-06, affine=True)
    (conv1): Conv2d(512, 512, kernel_size=(3, 3), stride=(1, 1), padding=(1, 1))
    (norm2): GroupNorm(32, 512, eps=1e-06, affine=True)
    (dropout): Dropout(p=0.0, inplace=False)
    (conv2): Conv2d(512, 512, kernel_size=(3, 3), stride=(1, 1), padding=(1, 1))
    (nonlinearity): SiLU()
  )
), ResnetBlock2D(
  (norm1): GroupNorm(32, 256, eps=1e-06, affine=True)
  (conv1): Conv2d(256, 512, kernel_size=(3, 3), stride=(1, 1), padding=(1, 1))
  (norm2): GroupNorm(32, 512, eps=1e-06, affine=True)
  (dropout): Dropout(p=0.0, inplace=False)
  (conv2): Conv2d(512, 512, kernel_size=(3, 3), stride=(1, 1), padding=(1, 1))
  (nonlinearity): SiLU()
  (conv_shortcut): Conv2d(256, 512, kernel_size=(1, 1), stride=(1, 1))
), GroupNorm(32, 256, eps=1e-06, affine=True), Conv2d(256, 512, kernel_size=(3, 3), stride=(1, 1), padding=(1, 1)), GroupNorm(32, 512, eps=1e-06, affine=True), Dropout(p=0.0, inplace=False), Conv2d(512, 512, kernel_size=(3, 3), stride=(1, 1), padding=(1, 1)), SiLU(), Conv2d(256, 512, kernel_size=(1, 1), stride=(1, 1)), ResnetBlock2D(
  (norm1): GroupNorm(32, 512, eps=1e-06, affine=True)
  (conv1): Conv2d(512, 512, kernel_size=(3, 3), stride=(1, 1), padding=(1, 1))
  (norm2): GroupNorm(32, 512, eps=1e-06, affine=True)
  (dropout): Dropout(p=0.0, inplace=False)
  (conv2): Conv2d(512, 512, kernel_size=(3, 3), stride=(1, 1), padding=(1, 1))
  (nonlinearity): SiLU()
), GroupNorm(32, 512, eps=1e-06, affine=True), Conv2d(512, 512, kernel_size=(3, 3), stride=(1, 1), padding=(1, 1)), GroupNorm(32, 512, eps=1e-06, affine=True), Dropout(p=0.0, inplace=False), Conv2d(512, 512, kernel_size=(3, 3), stride=(1, 1), padding=(1, 1)), SiLU(), ModuleList(
  (0): Downsample2D(
    (conv): Conv2d(512, 512, kernel_size=(3, 3), stride=(2, 2))
  )
), Downsample2D(
  (conv): Conv2d(512, 512, kernel_size=(3, 3), stride=(2, 2))
), Conv2d(512, 512, kernel_size=(3, 3), stride=(2, 2)), DownEncoderBlock2D(
  (resnets): ModuleList(
    (0-1): 2 x ResnetBlock2D(
      (norm1): GroupNorm(32, 512, eps=1e-06, affine=True)
      (conv1): Conv2d(512, 512, kernel_size=(3, 3), stride=(1, 1), padding=(1, 1))
      (norm2): GroupNorm(32, 512, eps=1e-06, affine=True)
      (dropout): Dropout(p=0.0, inplace=False)
      (conv2): Conv2d(512, 512, kernel_size=(3, 3), stride=(1, 1), padding=(1, 1))
      (nonlinearity): SiLU()
    )
  )
), ModuleList(
  (0-1): 2 x ResnetBlock2D(
    (norm1): GroupNorm(32, 512, eps=1e-06, affine=True)
    (conv1): Conv2d(512, 512, kernel_size=(3, 3), stride=(1, 1), padding=(1, 1))
    (norm2): GroupNorm(32, 512, eps=1e-06, affine=True)
    (dropout): Dropout(p=0.0, inplace=False)
    (conv2): Conv2d(512, 512, kernel_size=(3, 3), stride=(1, 1), padding=(1, 1))
    (nonlinearity): SiLU()
  )
), ResnetBlock2D(
  (norm1): GroupNorm(32, 512, eps=1e-06, affine=True)
  (conv1): Conv2d(512, 512, kernel_size=(3, 3), stride=(1, 1), padding=(1, 1))
  (norm2): GroupNorm(32, 512, eps=1e-06, affine=True)
  (dropout): Dropout(p=0.0, inplace=False)
  (conv2): Conv2d(512, 512, kernel_size=(3, 3), stride=(1, 1), padding=(1, 1))
  (nonlinearity): SiLU()
), GroupNorm(32, 512, eps=1e-06, affine=True), Conv2d(512, 512, kernel_size=(3, 3), stride=(1, 1), padding=(1, 1)), GroupNorm(32, 512, eps=1e-06, affine=True), Dropout(p=0.0, inplace=False), Conv2d(512, 512, kernel_size=(3, 3), stride=(1, 1), padding=(1, 1)), SiLU(), ResnetBlock2D(
  (norm1): GroupNorm(32, 512, eps=1e-06, affine=True)
  (conv1): Conv2d(512, 512, kernel_size=(3, 3), stride=(1, 1), padding=(1, 1))
  (norm2): GroupNorm(32, 512, eps=1e-06, affine=True)
  (dropout): Dropout(p=0.0, inplace=False)
  (conv2): Conv2d(512, 512, kernel_size=(3, 3), stride=(1, 1), padding=(1, 1))
  (nonlinearity): SiLU()
), GroupNorm(32, 512, eps=1e-06, affine=True), Conv2d(512, 512, kernel_size=(3, 3), stride=(1, 1), padding=(1, 1)), GroupNorm(32, 512, eps=1e-06, affine=True), Dropout(p=0.0, inplace=False), Conv2d(512, 512, kernel_size=(3, 3), stride=(1, 1), padding=(1, 1)), SiLU(), UNetMidBlock2D(
  (attentions): ModuleList(
    (0): Attention(
      (group_norm): GroupNorm(32, 512, eps=1e-06, affine=True)
      (to_q): Linear(in_features=512, out_features=512, bias=True)
      (to_k): Linear(in_features=512, out_features=512, bias=True)
      (to_v): Linear(in_features=512, out_features=512, bias=True)
      (to_out): ModuleList(
        (0): Linear(in_features=512, out_features=512, bias=True)
        (1): Dropout(p=0.0, inplace=False)
      )
    )
  )
  (resnets): ModuleList(
    (0-1): 2 x ResnetBlock2D(
      (norm1): GroupNorm(32, 512, eps=1e-06, affine=True)
      (conv1): Conv2d(512, 512, kernel_size=(3, 3), stride=(1, 1), padding=(1, 1))
      (norm2): GroupNorm(32, 512, eps=1e-06, affine=True)
      (dropout): Dropout(p=0.0, inplace=False)
      (conv2): Conv2d(512, 512, kernel_size=(3, 3), stride=(1, 1), padding=(1, 1))
      (nonlinearity): SiLU()
    )
  )
), ModuleList(
  (0): Attention(
    (group_norm): GroupNorm(32, 512, eps=1e-06, affine=True)
    (to_q): Linear(in_features=512, out_features=512, bias=True)
    (to_k): Linear(in_features=512, out_features=512, bias=True)
    (to_v): Linear(in_features=512, out_features=512, bias=True)
    (to_out): ModuleList(
      (0): Linear(in_features=512, out_features=512, bias=True)
      (1): Dropout(p=0.0, inplace=False)
    )
  )
), Attention(
  (group_norm): GroupNorm(32, 512, eps=1e-06, affine=True)
  (to_q): Linear(in_features=512, out_features=512, bias=True)
  (to_k): Linear(in_features=512, out_features=512, bias=True)
  (to_v): Linear(in_features=512, out_features=512, bias=True)
  (to_out): ModuleList(
    (0): Linear(in_features=512, out_features=512, bias=True)
    (1): Dropout(p=0.0, inplace=False)
  )
), GroupNorm(32, 512, eps=1e-06, affine=True), Linear(in_features=512, out_features=512, bias=True), Linear(in_features=512, out_features=512, bias=True), Linear(in_features=512, out_features=512, bias=True), ModuleList(
  (0): Linear(in_features=512, out_features=512, bias=True)
  (1): Dropout(p=0.0, inplace=False)
), Linear(in_features=512, out_features=512, bias=True), Dropout(p=0.0, inplace=False), ModuleList(
  (0-1): 2 x ResnetBlock2D(
    (norm1): GroupNorm(32, 512, eps=1e-06, affine=True)
    (conv1): Conv2d(512, 512, kernel_size=(3, 3), stride=(1, 1), padding=(1, 1))
    (norm2): GroupNorm(32, 512, eps=1e-06, affine=True)
    (dropout): Dropout(p=0.0, inplace=False)
    (conv2): Conv2d(512, 512, kernel_size=(3, 3), stride=(1, 1), padding=(1, 1))
    (nonlinearity): SiLU()
  )
), ResnetBlock2D(
  (norm1): GroupNorm(32, 512, eps=1e-06, affine=True)
  (conv1): Conv2d(512, 512, kernel_size=(3, 3), stride=(1, 1), padding=(1, 1))
  (norm2): GroupNorm(32, 512, eps=1e-06, affine=True)
  (dropout): Dropout(p=0.0, inplace=False)
  (conv2): Conv2d(512, 512, kernel_size=(3, 3), stride=(1, 1), padding=(1, 1))
  (nonlinearity): SiLU()
), GroupNorm(32, 512, eps=1e-06, affine=True), Conv2d(512, 512, kernel_size=(3, 3), stride=(1, 1), padding=(1, 1)), GroupNorm(32, 512, eps=1e-06, affine=True), Dropout(p=0.0, inplace=False), Conv2d(512, 512, kernel_size=(3, 3), stride=(1, 1), padding=(1, 1)), SiLU(), ResnetBlock2D(
  (norm1): GroupNorm(32, 512, eps=1e-06, affine=True)
  (conv1): Conv2d(512, 512, kernel_size=(3, 3), stride=(1, 1), padding=(1, 1))
  (norm2): GroupNorm(32, 512, eps=1e-06, affine=True)
  (dropout): Dropout(p=0.0, inplace=False)
  (conv2): Conv2d(512, 512, kernel_size=(3, 3), stride=(1, 1), padding=(1, 1))
  (nonlinearity): SiLU()
), GroupNorm(32, 512, eps=1e-06, affine=True), Conv2d(512, 512, kernel_size=(3, 3), stride=(1, 1), padding=(1, 1)), GroupNorm(32, 512, eps=1e-06, affine=True), Dropout(p=0.0, inplace=False), Conv2d(512, 512, kernel_size=(3, 3), stride=(1, 1), padding=(1, 1)), SiLU(), GroupNorm(32, 512, eps=1e-06, affine=True), SiLU(), Conv2d(512, 8, kernel_size=(3, 3), stride=(1, 1), padding=(1, 1)), Decoder(
  (conv_in): Conv2d(4, 512, kernel_size=(3, 3), stride=(1, 1), padding=(1, 1))
  (up_blocks): ModuleList(
    (0-1): 2 x UpDecoderBlock2D(
      (resnets): ModuleList(
        (0-2): 3 x ResnetBlock2D(
          (norm1): GroupNorm(32, 512, eps=1e-06, affine=True)
          (conv1): Conv2d(512, 512, kernel_size=(3, 3), stride=(1, 1), padding=(1, 1))
          (norm2): GroupNorm(32, 512, eps=1e-06, affine=True)
          (dropout): Dropout(p=0.0, inplace=False)
          (conv2): Conv2d(512, 512, kernel_size=(3, 3), stride=(1, 1), padding=(1, 1))
          (nonlinearity): SiLU()
        )
      )
      (upsamplers): ModuleList(
        (0): Upsample2D(
          (conv): Conv2d(512, 512, kernel_size=(3, 3), stride=(1, 1), padding=(1, 1))
        )
      )
    )
    (2): UpDecoderBlock2D(
      (resnets): ModuleList(
        (0): ResnetBlock2D(
          (norm1): GroupNorm(32, 512, eps=1e-06, affine=True)
          (conv1): Conv2d(512, 256, kernel_size=(3, 3), stride=(1, 1), padding=(1, 1))
          (norm2): GroupNorm(32, 256, eps=1e-06, affine=True)
          (dropout): Dropout(p=0.0, inplace=False)
          (conv2): Conv2d(256, 256, kernel_size=(3, 3), stride=(1, 1), padding=(1, 1))
          (nonlinearity): SiLU()
          (conv_shortcut): Conv2d(512, 256, kernel_size=(1, 1), stride=(1, 1))
        )
        (1-2): 2 x ResnetBlock2D(
          (norm1): GroupNorm(32, 256, eps=1e-06, affine=True)
          (conv1): Conv2d(256, 256, kernel_size=(3, 3), stride=(1, 1), padding=(1, 1))
          (norm2): GroupNorm(32, 256, eps=1e-06, affine=True)
          (dropout): Dropout(p=0.0, inplace=False)
          (conv2): Conv2d(256, 256, kernel_size=(3, 3), stride=(1, 1), padding=(1, 1))
          (nonlinearity): SiLU()
        )
      )
      (upsamplers): ModuleList(
        (0): Upsample2D(
          (conv): Conv2d(256, 256, kernel_size=(3, 3), stride=(1, 1), padding=(1, 1))
        )
      )
    )
    (3): UpDecoderBlock2D(
      (resnets): ModuleList(
        (0): ResnetBlock2D(
          (norm1): GroupNorm(32, 256, eps=1e-06, affine=True)
          (conv1): Conv2d(256, 128, kernel_size=(3, 3), stride=(1, 1), padding=(1, 1))
          (norm2): GroupNorm(32, 128, eps=1e-06, affine=True)
          (dropout): Dropout(p=0.0, inplace=False)
          (conv2): Conv2d(128, 128, kernel_size=(3, 3), stride=(1, 1), padding=(1, 1))
          (nonlinearity): SiLU()
          (conv_shortcut): Conv2d(256, 128, kernel_size=(1, 1), stride=(1, 1))
        )
        (1-2): 2 x ResnetBlock2D(
          (norm1): GroupNorm(32, 128, eps=1e-06, affine=True)
          (conv1): Conv2d(128, 128, kernel_size=(3, 3), stride=(1, 1), padding=(1, 1))
          (norm2): GroupNorm(32, 128, eps=1e-06, affine=True)
          (dropout): Dropout(p=0.0, inplace=False)
          (conv2): Conv2d(128, 128, kernel_size=(3, 3), stride=(1, 1), padding=(1, 1))
          (nonlinearity): SiLU()
        )
      )
    )
  )
  (mid_block): UNetMidBlock2D(
    (attentions): ModuleList(
      (0): Attention(
        (group_norm): GroupNorm(32, 512, eps=1e-06, affine=True)
        (to_q): Linear(in_features=512, out_features=512, bias=True)
        (to_k): Linear(in_features=512, out_features=512, bias=True)
        (to_v): Linear(in_features=512, out_features=512, bias=True)
        (to_out): ModuleList(
          (0): Linear(in_features=512, out_features=512, bias=True)
          (1): Dropout(p=0.0, inplace=False)
        )
      )
    )
    (resnets): ModuleList(
      (0-1): 2 x ResnetBlock2D(
        (norm1): GroupNorm(32, 512, eps=1e-06, affine=True)
        (conv1): Conv2d(512, 512, kernel_size=(3, 3), stride=(1, 1), padding=(1, 1))
        (norm2): GroupNorm(32, 512, eps=1e-06, affine=True)
        (dropout): Dropout(p=0.0, inplace=False)
        (conv2): Conv2d(512, 512, kernel_size=(3, 3), stride=(1, 1), padding=(1, 1))
        (nonlinearity): SiLU()
      )
    )
  )
  (conv_norm_out): GroupNorm(32, 128, eps=1e-06, affine=True)
  (conv_act): SiLU()
  (conv_out): Conv2d(128, 3, kernel_size=(3, 3), stride=(1, 1), padding=(1, 1))
), Conv2d(4, 512, kernel_size=(3, 3), stride=(1, 1), padding=(1, 1)), ModuleList(
  (0-1): 2 x UpDecoderBlock2D(
    (resnets): ModuleList(
      (0-2): 3 x ResnetBlock2D(
        (norm1): GroupNorm(32, 512, eps=1e-06, affine=True)
        (conv1): Conv2d(512, 512, kernel_size=(3, 3), stride=(1, 1), padding=(1, 1))
        (norm2): GroupNorm(32, 512, eps=1e-06, affine=True)
        (dropout): Dropout(p=0.0, inplace=False)
        (conv2): Conv2d(512, 512, kernel_size=(3, 3), stride=(1, 1), padding=(1, 1))
        (nonlinearity): SiLU()
      )
    )
    (upsamplers): ModuleList(
      (0): Upsample2D(
        (conv): Conv2d(512, 512, kernel_size=(3, 3), stride=(1, 1), padding=(1, 1))
      )
    )
  )
  (2): UpDecoderBlock2D(
    (resnets): ModuleList(
      (0): ResnetBlock2D(
        (norm1): GroupNorm(32, 512, eps=1e-06, affine=True)
        (conv1): Conv2d(512, 256, kernel_size=(3, 3), stride=(1, 1), padding=(1, 1))
        (norm2): GroupNorm(32, 256, eps=1e-06, affine=True)
        (dropout): Dropout(p=0.0, inplace=False)
        (conv2): Conv2d(256, 256, kernel_size=(3, 3), stride=(1, 1), padding=(1, 1))
        (nonlinearity): SiLU()
        (conv_shortcut): Conv2d(512, 256, kernel_size=(1, 1), stride=(1, 1))
      )
      (1-2): 2 x ResnetBlock2D(
        (norm1): GroupNorm(32, 256, eps=1e-06, affine=True)
        (conv1): Conv2d(256, 256, kernel_size=(3, 3), stride=(1, 1), padding=(1, 1))
        (norm2): GroupNorm(32, 256, eps=1e-06, affine=True)
        (dropout): Dropout(p=0.0, inplace=False)
        (conv2): Conv2d(256, 256, kernel_size=(3, 3), stride=(1, 1), padding=(1, 1))
        (nonlinearity): SiLU()
      )
    )
    (upsamplers): ModuleList(
      (0): Upsample2D(
        (conv): Conv2d(256, 256, kernel_size=(3, 3), stride=(1, 1), padding=(1, 1))
      )
    )
  )
  (3): UpDecoderBlock2D(
    (resnets): ModuleList(
      (0): ResnetBlock2D(
        (norm1): GroupNorm(32, 256, eps=1e-06, affine=True)
        (conv1): Conv2d(256, 128, kernel_size=(3, 3), stride=(1, 1), padding=(1, 1))
        (norm2): GroupNorm(32, 128, eps=1e-06, affine=True)
        (dropout): Dropout(p=0.0, inplace=False)
        (conv2): Conv2d(128, 128, kernel_size=(3, 3), stride=(1, 1), padding=(1, 1))
        (nonlinearity): SiLU()
        (conv_shortcut): Conv2d(256, 128, kernel_size=(1, 1), stride=(1, 1))
      )
      (1-2): 2 x ResnetBlock2D(
        (norm1): GroupNorm(32, 128, eps=1e-06, affine=True)
        (conv1): Conv2d(128, 128, kernel_size=(3, 3), stride=(1, 1), padding=(1, 1))
        (norm2): GroupNorm(32, 128, eps=1e-06, affine=True)
        (dropout): Dropout(p=0.0, inplace=False)
        (conv2): Conv2d(128, 128, kernel_size=(3, 3), stride=(1, 1), padding=(1, 1))
        (nonlinearity): SiLU()
      )
    )
  )
), UpDecoderBlock2D(
  (resnets): ModuleList(
    (0-2): 3 x ResnetBlock2D(
      (norm1): GroupNorm(32, 512, eps=1e-06, affine=True)
      (conv1): Conv2d(512, 512, kernel_size=(3, 3), stride=(1, 1), padding=(1, 1))
      (norm2): GroupNorm(32, 512, eps=1e-06, affine=True)
      (dropout): Dropout(p=0.0, inplace=False)
      (conv2): Conv2d(512, 512, kernel_size=(3, 3), stride=(1, 1), padding=(1, 1))
      (nonlinearity): SiLU()
    )
  )
  (upsamplers): ModuleList(
    (0): Upsample2D(
      (conv): Conv2d(512, 512, kernel_size=(3, 3), stride=(1, 1), padding=(1, 1))
    )
  )
), ModuleList(
  (0-2): 3 x ResnetBlock2D(
    (norm1): GroupNorm(32, 512, eps=1e-06, affine=True)
    (conv1): Conv2d(512, 512, kernel_size=(3, 3), stride=(1, 1), padding=(1, 1))
    (norm2): GroupNorm(32, 512, eps=1e-06, affine=True)
    (dropout): Dropout(p=0.0, inplace=False)
    (conv2): Conv2d(512, 512, kernel_size=(3, 3), stride=(1, 1), padding=(1, 1))
    (nonlinearity): SiLU()
  )
), ResnetBlock2D(
  (norm1): GroupNorm(32, 512, eps=1e-06, affine=True)
  (conv1): Conv2d(512, 512, kernel_size=(3, 3), stride=(1, 1), padding=(1, 1))
  (norm2): GroupNorm(32, 512, eps=1e-06, affine=True)
  (dropout): Dropout(p=0.0, inplace=False)
  (conv2): Conv2d(512, 512, kernel_size=(3, 3), stride=(1, 1), padding=(1, 1))
  (nonlinearity): SiLU()
), GroupNorm(32, 512, eps=1e-06, affine=True), Conv2d(512, 512, kernel_size=(3, 3), stride=(1, 1), padding=(1, 1)), GroupNorm(32, 512, eps=1e-06, affine=True), Dropout(p=0.0, inplace=False), Conv2d(512, 512, kernel_size=(3, 3), stride=(1, 1), padding=(1, 1)), SiLU(), ResnetBlock2D(
  (norm1): GroupNorm(32, 512, eps=1e-06, affine=True)
  (conv1): Conv2d(512, 512, kernel_size=(3, 3), stride=(1, 1), padding=(1, 1))
  (norm2): GroupNorm(32, 512, eps=1e-06, affine=True)
  (dropout): Dropout(p=0.0, inplace=False)
  (conv2): Conv2d(512, 512, kernel_size=(3, 3), stride=(1, 1), padding=(1, 1))
  (nonlinearity): SiLU()
), GroupNorm(32, 512, eps=1e-06, affine=True), Conv2d(512, 512, kernel_size=(3, 3), stride=(1, 1), padding=(1, 1)), GroupNorm(32, 512, eps=1e-06, affine=True), Dropout(p=0.0, inplace=False), Conv2d(512, 512, kernel_size=(3, 3), stride=(1, 1), padding=(1, 1)), SiLU(), ResnetBlock2D(
  (norm1): GroupNorm(32, 512, eps=1e-06, affine=True)
  (conv1): Conv2d(512, 512, kernel_size=(3, 3), stride=(1, 1), padding=(1, 1))
  (norm2): GroupNorm(32, 512, eps=1e-06, affine=True)
  (dropout): Dropout(p=0.0, inplace=False)
  (conv2): Conv2d(512, 512, kernel_size=(3, 3), stride=(1, 1), padding=(1, 1))
  (nonlinearity): SiLU()
), GroupNorm(32, 512, eps=1e-06, affine=True), Conv2d(512, 512, kernel_size=(3, 3), stride=(1, 1), padding=(1, 1)), GroupNorm(32, 512, eps=1e-06, affine=True), Dropout(p=0.0, inplace=False), Conv2d(512, 512, kernel_size=(3, 3), stride=(1, 1), padding=(1, 1)), SiLU(), ModuleList(
  (0): Upsample2D(
    (conv): Conv2d(512, 512, kernel_size=(3, 3), stride=(1, 1), padding=(1, 1))
  )
), Upsample2D(
  (conv): Conv2d(512, 512, kernel_size=(3, 3), stride=(1, 1), padding=(1, 1))
), Conv2d(512, 512, kernel_size=(3, 3), stride=(1, 1), padding=(1, 1)), UpDecoderBlock2D(
  (resnets): ModuleList(
    (0-2): 3 x ResnetBlock2D(
      (norm1): GroupNorm(32, 512, eps=1e-06, affine=True)
      (conv1): Conv2d(512, 512, kernel_size=(3, 3), stride=(1, 1), padding=(1, 1))
      (norm2): GroupNorm(32, 512, eps=1e-06, affine=True)
      (dropout): Dropout(p=0.0, inplace=False)
      (conv2): Conv2d(512, 512, kernel_size=(3, 3), stride=(1, 1), padding=(1, 1))
      (nonlinearity): SiLU()
    )
  )
  (upsamplers): ModuleList(
    (0): Upsample2D(
      (conv): Conv2d(512, 512, kernel_size=(3, 3), stride=(1, 1), padding=(1, 1))
    )
  )
), ModuleList(
  (0-2): 3 x ResnetBlock2D(
    (norm1): GroupNorm(32, 512, eps=1e-06, affine=True)
    (conv1): Conv2d(512, 512, kernel_size=(3, 3), stride=(1, 1), padding=(1, 1))
    (norm2): GroupNorm(32, 512, eps=1e-06, affine=True)
    (dropout): Dropout(p=0.0, inplace=False)
    (conv2): Conv2d(512, 512, kernel_size=(3, 3), stride=(1, 1), padding=(1, 1))
    (nonlinearity): SiLU()
  )
), ResnetBlock2D(
  (norm1): GroupNorm(32, 512, eps=1e-06, affine=True)
  (conv1): Conv2d(512, 512, kernel_size=(3, 3), stride=(1, 1), padding=(1, 1))
  (norm2): GroupNorm(32, 512, eps=1e-06, affine=True)
  (dropout): Dropout(p=0.0, inplace=False)
  (conv2): Conv2d(512, 512, kernel_size=(3, 3), stride=(1, 1), padding=(1, 1))
  (nonlinearity): SiLU()
), GroupNorm(32, 512, eps=1e-06, affine=True), Conv2d(512, 512, kernel_size=(3, 3), stride=(1, 1), padding=(1, 1)), GroupNorm(32, 512, eps=1e-06, affine=True), Dropout(p=0.0, inplace=False), Conv2d(512, 512, kernel_size=(3, 3), stride=(1, 1), padding=(1, 1)), SiLU(), ResnetBlock2D(
  (norm1): GroupNorm(32, 512, eps=1e-06, affine=True)
  (conv1): Conv2d(512, 512, kernel_size=(3, 3), stride=(1, 1), padding=(1, 1))
  (norm2): GroupNorm(32, 512, eps=1e-06, affine=True)
  (dropout): Dropout(p=0.0, inplace=False)
  (conv2): Conv2d(512, 512, kernel_size=(3, 3), stride=(1, 1), padding=(1, 1))
  (nonlinearity): SiLU()
), GroupNorm(32, 512, eps=1e-06, affine=True), Conv2d(512, 512, kernel_size=(3, 3), stride=(1, 1), padding=(1, 1)), GroupNorm(32, 512, eps=1e-06, affine=True), Dropout(p=0.0, inplace=False), Conv2d(512, 512, kernel_size=(3, 3), stride=(1, 1), padding=(1, 1)), SiLU(), ResnetBlock2D(
  (norm1): GroupNorm(32, 512, eps=1e-06, affine=True)
  (conv1): Conv2d(512, 512, kernel_size=(3, 3), stride=(1, 1), padding=(1, 1))
  (norm2): GroupNorm(32, 512, eps=1e-06, affine=True)
  (dropout): Dropout(p=0.0, inplace=False)
  (conv2): Conv2d(512, 512, kernel_size=(3, 3), stride=(1, 1), padding=(1, 1))
  (nonlinearity): SiLU()
), GroupNorm(32, 512, eps=1e-06, affine=True), Conv2d(512, 512, kernel_size=(3, 3), stride=(1, 1), padding=(1, 1)), GroupNorm(32, 512, eps=1e-06, affine=True), Dropout(p=0.0, inplace=False), Conv2d(512, 512, kernel_size=(3, 3), stride=(1, 1), padding=(1, 1)), SiLU(), ModuleList(
  (0): Upsample2D(
    (conv): Conv2d(512, 512, kernel_size=(3, 3), stride=(1, 1), padding=(1, 1))
  )
), Upsample2D(
  (conv): Conv2d(512, 512, kernel_size=(3, 3), stride=(1, 1), padding=(1, 1))
), Conv2d(512, 512, kernel_size=(3, 3), stride=(1, 1), padding=(1, 1)), UpDecoderBlock2D(
  (resnets): ModuleList(
    (0): ResnetBlock2D(
      (norm1): GroupNorm(32, 512, eps=1e-06, affine=True)
      (conv1): Conv2d(512, 256, kernel_size=(3, 3), stride=(1, 1), padding=(1, 1))
      (norm2): GroupNorm(32, 256, eps=1e-06, affine=True)
      (dropout): Dropout(p=0.0, inplace=False)
      (conv2): Conv2d(256, 256, kernel_size=(3, 3), stride=(1, 1), padding=(1, 1))
      (nonlinearity): SiLU()
      (conv_shortcut): Conv2d(512, 256, kernel_size=(1, 1), stride=(1, 1))
    )
    (1-2): 2 x ResnetBlock2D(
      (norm1): GroupNorm(32, 256, eps=1e-06, affine=True)
      (conv1): Conv2d(256, 256, kernel_size=(3, 3), stride=(1, 1), padding=(1, 1))
      (norm2): GroupNorm(32, 256, eps=1e-06, affine=True)
      (dropout): Dropout(p=0.0, inplace=False)
      (conv2): Conv2d(256, 256, kernel_size=(3, 3), stride=(1, 1), padding=(1, 1))
      (nonlinearity): SiLU()
    )
  )
  (upsamplers): ModuleList(
    (0): Upsample2D(
      (conv): Conv2d(256, 256, kernel_size=(3, 3), stride=(1, 1), padding=(1, 1))
    )
  )
), ModuleList(
  (0): ResnetBlock2D(
    (norm1): GroupNorm(32, 512, eps=1e-06, affine=True)
    (conv1): Conv2d(512, 256, kernel_size=(3, 3), stride=(1, 1), padding=(1, 1))
    (norm2): GroupNorm(32, 256, eps=1e-06, affine=True)
    (dropout): Dropout(p=0.0, inplace=False)
    (conv2): Conv2d(256, 256, kernel_size=(3, 3), stride=(1, 1), padding=(1, 1))
    (nonlinearity): SiLU()
    (conv_shortcut): Conv2d(512, 256, kernel_size=(1, 1), stride=(1, 1))
  )
  (1-2): 2 x ResnetBlock2D(
    (norm1): GroupNorm(32, 256, eps=1e-06, affine=True)
    (conv1): Conv2d(256, 256, kernel_size=(3, 3), stride=(1, 1), padding=(1, 1))
    (norm2): GroupNorm(32, 256, eps=1e-06, affine=True)
    (dropout): Dropout(p=0.0, inplace=False)
    (conv2): Conv2d(256, 256, kernel_size=(3, 3), stride=(1, 1), padding=(1, 1))
    (nonlinearity): SiLU()
  )
), ResnetBlock2D(
  (norm1): GroupNorm(32, 512, eps=1e-06, affine=True)
  (conv1): Conv2d(512, 256, kernel_size=(3, 3), stride=(1, 1), padding=(1, 1))
  (norm2): GroupNorm(32, 256, eps=1e-06, affine=True)
  (dropout): Dropout(p=0.0, inplace=False)
  (conv2): Conv2d(256, 256, kernel_size=(3, 3), stride=(1, 1), padding=(1, 1))
  (nonlinearity): SiLU()
  (conv_shortcut): Conv2d(512, 256, kernel_size=(1, 1), stride=(1, 1))
), GroupNorm(32, 512, eps=1e-06, affine=True), Conv2d(512, 256, kernel_size=(3, 3), stride=(1, 1), padding=(1, 1)), GroupNorm(32, 256, eps=1e-06, affine=True), Dropout(p=0.0, inplace=False), Conv2d(256, 256, kernel_size=(3, 3), stride=(1, 1), padding=(1, 1)), SiLU(), Conv2d(512, 256, kernel_size=(1, 1), stride=(1, 1)), ResnetBlock2D(
  (norm1): GroupNorm(32, 256, eps=1e-06, affine=True)
  (conv1): Conv2d(256, 256, kernel_size=(3, 3), stride=(1, 1), padding=(1, 1))
  (norm2): GroupNorm(32, 256, eps=1e-06, affine=True)
  (dropout): Dropout(p=0.0, inplace=False)
  (conv2): Conv2d(256, 256, kernel_size=(3, 3), stride=(1, 1), padding=(1, 1))
  (nonlinearity): SiLU()
), GroupNorm(32, 256, eps=1e-06, affine=True), Conv2d(256, 256, kernel_size=(3, 3), stride=(1, 1), padding=(1, 1)), GroupNorm(32, 256, eps=1e-06, affine=True), Dropout(p=0.0, inplace=False), Conv2d(256, 256, kernel_size=(3, 3), stride=(1, 1), padding=(1, 1)), SiLU(), ResnetBlock2D(
  (norm1): GroupNorm(32, 256, eps=1e-06, affine=True)
  (conv1): Conv2d(256, 256, kernel_size=(3, 3), stride=(1, 1), padding=(1, 1))
  (norm2): GroupNorm(32, 256, eps=1e-06, affine=True)
  (dropout): Dropout(p=0.0, inplace=False)
  (conv2): Conv2d(256, 256, kernel_size=(3, 3), stride=(1, 1), padding=(1, 1))
  (nonlinearity): SiLU()
), GroupNorm(32, 256, eps=1e-06, affine=True), Conv2d(256, 256, kernel_size=(3, 3), stride=(1, 1), padding=(1, 1)), GroupNorm(32, 256, eps=1e-06, affine=True), Dropout(p=0.0, inplace=False), Conv2d(256, 256, kernel_size=(3, 3), stride=(1, 1), padding=(1, 1)), SiLU(), ModuleList(
  (0): Upsample2D(
    (conv): Conv2d(256, 256, kernel_size=(3, 3), stride=(1, 1), padding=(1, 1))
  )
), Upsample2D(
  (conv): Conv2d(256, 256, kernel_size=(3, 3), stride=(1, 1), padding=(1, 1))
), Conv2d(256, 256, kernel_size=(3, 3), stride=(1, 1), padding=(1, 1)), UpDecoderBlock2D(
  (resnets): ModuleList(
    (0): ResnetBlock2D(
      (norm1): GroupNorm(32, 256, eps=1e-06, affine=True)
      (conv1): Conv2d(256, 128, kernel_size=(3, 3), stride=(1, 1), padding=(1, 1))
      (norm2): GroupNorm(32, 128, eps=1e-06, affine=True)
      (dropout): Dropout(p=0.0, inplace=False)
      (conv2): Conv2d(128, 128, kernel_size=(3, 3), stride=(1, 1), padding=(1, 1))
      (nonlinearity): SiLU()
      (conv_shortcut): Conv2d(256, 128, kernel_size=(1, 1), stride=(1, 1))
    )
    (1-2): 2 x ResnetBlock2D(
      (norm1): GroupNorm(32, 128, eps=1e-06, affine=True)
      (conv1): Conv2d(128, 128, kernel_size=(3, 3), stride=(1, 1), padding=(1, 1))
      (norm2): GroupNorm(32, 128, eps=1e-06, affine=True)
      (dropout): Dropout(p=0.0, inplace=False)
      (conv2): Conv2d(128, 128, kernel_size=(3, 3), stride=(1, 1), padding=(1, 1))
      (nonlinearity): SiLU()
    )
  )
), ModuleList(
  (0): ResnetBlock2D(
    (norm1): GroupNorm(32, 256, eps=1e-06, affine=True)
    (conv1): Conv2d(256, 128, kernel_size=(3, 3), stride=(1, 1), padding=(1, 1))
    (norm2): GroupNorm(32, 128, eps=1e-06, affine=True)
    (dropout): Dropout(p=0.0, inplace=False)
    (conv2): Conv2d(128, 128, kernel_size=(3, 3), stride=(1, 1), padding=(1, 1))
    (nonlinearity): SiLU()
    (conv_shortcut): Conv2d(256, 128, kernel_size=(1, 1), stride=(1, 1))
  )
  (1-2): 2 x ResnetBlock2D(
    (norm1): GroupNorm(32, 128, eps=1e-06, affine=True)
    (conv1): Conv2d(128, 128, kernel_size=(3, 3), stride=(1, 1), padding=(1, 1))
    (norm2): GroupNorm(32, 128, eps=1e-06, affine=True)
    (dropout): Dropout(p=0.0, inplace=False)
    (conv2): Conv2d(128, 128, kernel_size=(3, 3), stride=(1, 1), padding=(1, 1))
    (nonlinearity): SiLU()
  )
), ResnetBlock2D(
  (norm1): GroupNorm(32, 256, eps=1e-06, affine=True)
  (conv1): Conv2d(256, 128, kernel_size=(3, 3), stride=(1, 1), padding=(1, 1))
  (norm2): GroupNorm(32, 128, eps=1e-06, affine=True)
  (dropout): Dropout(p=0.0, inplace=False)
  (conv2): Conv2d(128, 128, kernel_size=(3, 3), stride=(1, 1), padding=(1, 1))
  (nonlinearity): SiLU()
  (conv_shortcut): Conv2d(256, 128, kernel_size=(1, 1), stride=(1, 1))
), GroupNorm(32, 256, eps=1e-06, affine=True), Conv2d(256, 128, kernel_size=(3, 3), stride=(1, 1), padding=(1, 1)), GroupNorm(32, 128, eps=1e-06, affine=True), Dropout(p=0.0, inplace=False), Conv2d(128, 128, kernel_size=(3, 3), stride=(1, 1), padding=(1, 1)), SiLU(), Conv2d(256, 128, kernel_size=(1, 1), stride=(1, 1)), ResnetBlock2D(
  (norm1): GroupNorm(32, 128, eps=1e-06, affine=True)
  (conv1): Conv2d(128, 128, kernel_size=(3, 3), stride=(1, 1), padding=(1, 1))
  (norm2): GroupNorm(32, 128, eps=1e-06, affine=True)
  (dropout): Dropout(p=0.0, inplace=False)
  (conv2): Conv2d(128, 128, kernel_size=(3, 3), stride=(1, 1), padding=(1, 1))
  (nonlinearity): SiLU()
), GroupNorm(32, 128, eps=1e-06, affine=True), Conv2d(128, 128, kernel_size=(3, 3), stride=(1, 1), padding=(1, 1)), GroupNorm(32, 128, eps=1e-06, affine=True), Dropout(p=0.0, inplace=False), Conv2d(128, 128, kernel_size=(3, 3), stride=(1, 1), padding=(1, 1)), SiLU(), ResnetBlock2D(
  (norm1): GroupNorm(32, 128, eps=1e-06, affine=True)
  (conv1): Conv2d(128, 128, kernel_size=(3, 3), stride=(1, 1), padding=(1, 1))
  (norm2): GroupNorm(32, 128, eps=1e-06, affine=True)
  (dropout): Dropout(p=0.0, inplace=False)
  (conv2): Conv2d(128, 128, kernel_size=(3, 3), stride=(1, 1), padding=(1, 1))
  (nonlinearity): SiLU()
), GroupNorm(32, 128, eps=1e-06, affine=True), Conv2d(128, 128, kernel_size=(3, 3), stride=(1, 1), padding=(1, 1)), GroupNorm(32, 128, eps=1e-06, affine=True), Dropout(p=0.0, inplace=False), Conv2d(128, 128, kernel_size=(3, 3), stride=(1, 1), padding=(1, 1)), SiLU(), UNetMidBlock2D(
  (attentions): ModuleList(
    (0): Attention(
      (group_norm): GroupNorm(32, 512, eps=1e-06, affine=True)
      (to_q): Linear(in_features=512, out_features=512, bias=True)
      (to_k): Linear(in_features=512, out_features=512, bias=True)
      (to_v): Linear(in_features=512, out_features=512, bias=True)
      (to_out): ModuleList(
        (0): Linear(in_features=512, out_features=512, bias=True)
        (1): Dropout(p=0.0, inplace=False)
      )
    )
  )
  (resnets): ModuleList(
    (0-1): 2 x ResnetBlock2D(
      (norm1): GroupNorm(32, 512, eps=1e-06, affine=True)
      (conv1): Conv2d(512, 512, kernel_size=(3, 3), stride=(1, 1), padding=(1, 1))
      (norm2): GroupNorm(32, 512, eps=1e-06, affine=True)
      (dropout): Dropout(p=0.0, inplace=False)
      (conv2): Conv2d(512, 512, kernel_size=(3, 3), stride=(1, 1), padding=(1, 1))
      (nonlinearity): SiLU()
    )
  )
), ModuleList(
  (0): Attention(
    (group_norm): GroupNorm(32, 512, eps=1e-06, affine=True)
    (to_q): Linear(in_features=512, out_features=512, bias=True)
    (to_k): Linear(in_features=512, out_features=512, bias=True)
    (to_v): Linear(in_features=512, out_features=512, bias=True)
    (to_out): ModuleList(
      (0): Linear(in_features=512, out_features=512, bias=True)
      (1): Dropout(p=0.0, inplace=False)
    )
  )
), Attention(
  (group_norm): GroupNorm(32, 512, eps=1e-06, affine=True)
  (to_q): Linear(in_features=512, out_features=512, bias=True)
  (to_k): Linear(in_features=512, out_features=512, bias=True)
  (to_v): Linear(in_features=512, out_features=512, bias=True)
  (to_out): ModuleList(
    (0): Linear(in_features=512, out_features=512, bias=True)
    (1): Dropout(p=0.0, inplace=False)
  )
), GroupNorm(32, 512, eps=1e-06, affine=True), Linear(in_features=512, out_features=512, bias=True), Linear(in_features=512, out_features=512, bias=True), Linear(in_features=512, out_features=512, bias=True), ModuleList(
  (0): Linear(in_features=512, out_features=512, bias=True)
  (1): Dropout(p=0.0, inplace=False)
), Linear(in_features=512, out_features=512, bias=True), Dropout(p=0.0, inplace=False), ModuleList(
  (0-1): 2 x ResnetBlock2D(
    (norm1): GroupNorm(32, 512, eps=1e-06, affine=True)
    (conv1): Conv2d(512, 512, kernel_size=(3, 3), stride=(1, 1), padding=(1, 1))
    (norm2): GroupNorm(32, 512, eps=1e-06, affine=True)
    (dropout): Dropout(p=0.0, inplace=False)
    (conv2): Conv2d(512, 512, kernel_size=(3, 3), stride=(1, 1), padding=(1, 1))
    (nonlinearity): SiLU()
  )
), ResnetBlock2D(
  (norm1): GroupNorm(32, 512, eps=1e-06, affine=True)
  (conv1): Conv2d(512, 512, kernel_size=(3, 3), stride=(1, 1), padding=(1, 1))
  (norm2): GroupNorm(32, 512, eps=1e-06, affine=True)
  (dropout): Dropout(p=0.0, inplace=False)
  (conv2): Conv2d(512, 512, kernel_size=(3, 3), stride=(1, 1), padding=(1, 1))
  (nonlinearity): SiLU()
), GroupNorm(32, 512, eps=1e-06, affine=True), Conv2d(512, 512, kernel_size=(3, 3), stride=(1, 1), padding=(1, 1)), GroupNorm(32, 512, eps=1e-06, affine=True), Dropout(p=0.0, inplace=False), Conv2d(512, 512, kernel_size=(3, 3), stride=(1, 1), padding=(1, 1)), SiLU(), ResnetBlock2D(
  (norm1): GroupNorm(32, 512, eps=1e-06, affine=True)
  (conv1): Conv2d(512, 512, kernel_size=(3, 3), stride=(1, 1), padding=(1, 1))
  (norm2): GroupNorm(32, 512, eps=1e-06, affine=True)
  (dropout): Dropout(p=0.0, inplace=False)
  (conv2): Conv2d(512, 512, kernel_size=(3, 3), stride=(1, 1), padding=(1, 1))
  (nonlinearity): SiLU()
), GroupNorm(32, 512, eps=1e-06, affine=True), Conv2d(512, 512, kernel_size=(3, 3), stride=(1, 1), padding=(1, 1)), GroupNorm(32, 512, eps=1e-06, affine=True), Dropout(p=0.0, inplace=False), Conv2d(512, 512, kernel_size=(3, 3), stride=(1, 1), padding=(1, 1)), SiLU(), GroupNorm(32, 128, eps=1e-06, affine=True), SiLU(), Conv2d(128, 3, kernel_size=(3, 3), stride=(1, 1), padding=(1, 1)), Conv2d(8, 8, kernel_size=(1, 1), stride=(1, 1)), Conv2d(4, 4, kernel_size=(1, 1), stride=(1, 1)), CLIPTextModel(
  (text_model): CLIPTextTransformer(
    (embeddings): CLIPTextEmbeddings(
      (token_embedding): Embedding(49408, 768)
      (position_embedding): Embedding(77, 768)
    )
    (encoder): CLIPEncoder(
      (layers): ModuleList(
        (0-11): 12 x CLIPEncoderLayer(
          (self_attn): CLIPAttention(
            (k_proj): Linear(in_features=768, out_features=768, bias=True)
            (v_proj): Linear(in_features=768, out_features=768, bias=True)
            (q_proj): Linear(in_features=768, out_features=768, bias=True)
            (out_proj): Linear(in_features=768, out_features=768, bias=True)
          )
          (layer_norm1): LayerNorm((768,), eps=1e-05, elementwise_affine=True)
          (mlp): CLIPMLP(
            (activation_fn): QuickGELUActivation()
            (fc1): Linear(in_features=768, out_features=3072, bias=True)
            (fc2): Linear(in_features=3072, out_features=768, bias=True)
          )
          (layer_norm2): LayerNorm((768,), eps=1e-05, elementwise_affine=True)
        )
      )
    )
    (final_layer_norm): LayerNorm((768,), eps=1e-05, elementwise_affine=True)
  )
), CLIPTextTransformer(
  (embeddings): CLIPTextEmbeddings(
    (token_embedding): Embedding(49408, 768)
    (position_embedding): Embedding(77, 768)
  )
  (encoder): CLIPEncoder(
    (layers): ModuleList(
      (0-11): 12 x CLIPEncoderLayer(
        (self_attn): CLIPAttention(
          (k_proj): Linear(in_features=768, out_features=768, bias=True)
          (v_proj): Linear(in_features=768, out_features=768, bias=True)
          (q_proj): Linear(in_features=768, out_features=768, bias=True)
          (out_proj): Linear(in_features=768, out_features=768, bias=True)
        )
        (layer_norm1): LayerNorm((768,), eps=1e-05, elementwise_affine=True)
        (mlp): CLIPMLP(
          (activation_fn): QuickGELUActivation()
          (fc1): Linear(in_features=768, out_features=3072, bias=True)
          (fc2): Linear(in_features=3072, out_features=768, bias=True)
        )
        (layer_norm2): LayerNorm((768,), eps=1e-05, elementwise_affine=True)
      )
    )
  )
  (final_layer_norm): LayerNorm((768,), eps=1e-05, elementwise_affine=True)
), CLIPTextEmbeddings(
  (token_embedding): Embedding(49408, 768)
  (position_embedding): Embedding(77, 768)
), Embedding(49408, 768), Embedding(77, 768), CLIPEncoder(
  (layers): ModuleList(
    (0-11): 12 x CLIPEncoderLayer(
      (self_attn): CLIPAttention(
        (k_proj): Linear(in_features=768, out_features=768, bias=True)
        (v_proj): Linear(in_features=768, out_features=768, bias=True)
        (q_proj): Linear(in_features=768, out_features=768, bias=True)
        (out_proj): Linear(in_features=768, out_features=768, bias=True)
      )
      (layer_norm1): LayerNorm((768,), eps=1e-05, elementwise_affine=True)
      (mlp): CLIPMLP(
        (activation_fn): QuickGELUActivation()
        (fc1): Linear(in_features=768, out_features=3072, bias=True)
        (fc2): Linear(in_features=3072, out_features=768, bias=True)
      )
      (layer_norm2): LayerNorm((768,), eps=1e-05, elementwise_affine=True)
    )
  )
), ModuleList(
  (0-11): 12 x CLIPEncoderLayer(
    (self_attn): CLIPAttention(
      (k_proj): Linear(in_features=768, out_features=768, bias=True)
      (v_proj): Linear(in_features=768, out_features=768, bias=True)
      (q_proj): Linear(in_features=768, out_features=768, bias=True)
      (out_proj): Linear(in_features=768, out_features=768, bias=True)
    )
    (layer_norm1): LayerNorm((768,), eps=1e-05, elementwise_affine=True)
    (mlp): CLIPMLP(
      (activation_fn): QuickGELUActivation()
      (fc1): Linear(in_features=768, out_features=3072, bias=True)
      (fc2): Linear(in_features=3072, out_features=768, bias=True)
    )
    (layer_norm2): LayerNorm((768,), eps=1e-05, elementwise_affine=True)
  )
), CLIPEncoderLayer(
  (self_attn): CLIPAttention(
    (k_proj): Linear(in_features=768, out_features=768, bias=True)
    (v_proj): Linear(in_features=768, out_features=768, bias=True)
    (q_proj): Linear(in_features=768, out_features=768, bias=True)
    (out_proj): Linear(in_features=768, out_features=768, bias=True)
  )
  (layer_norm1): LayerNorm((768,), eps=1e-05, elementwise_affine=True)
  (mlp): CLIPMLP(
    (activation_fn): QuickGELUActivation()
    (fc1): Linear(in_features=768, out_features=3072, bias=True)
    (fc2): Linear(in_features=3072, out_features=768, bias=True)
  )
  (layer_norm2): LayerNorm((768,), eps=1e-05, elementwise_affine=True)
), CLIPAttention(
  (k_proj): Linear(in_features=768, out_features=768, bias=True)
  (v_proj): Linear(in_features=768, out_features=768, bias=True)
  (q_proj): Linear(in_features=768, out_features=768, bias=True)
  (out_proj): Linear(in_features=768, out_features=768, bias=True)
), Linear(in_features=768, out_features=768, bias=True), Linear(in_features=768, out_features=768, bias=True), Linear(in_features=768, out_features=768, bias=True), Linear(in_features=768, out_features=768, bias=True), LayerNorm((768,), eps=1e-05, elementwise_affine=True), CLIPMLP(
  (activation_fn): QuickGELUActivation()
  (fc1): Linear(in_features=768, out_features=3072, bias=True)
  (fc2): Linear(in_features=3072, out_features=768, bias=True)
), QuickGELUActivation(), Linear(in_features=768, out_features=3072, bias=True), Linear(in_features=3072, out_features=768, bias=True), LayerNorm((768,), eps=1e-05, elementwise_affine=True), CLIPEncoderLayer(
  (self_attn): CLIPAttention(
    (k_proj): Linear(in_features=768, out_features=768, bias=True)
    (v_proj): Linear(in_features=768, out_features=768, bias=True)
    (q_proj): Linear(in_features=768, out_features=768, bias=True)
    (out_proj): Linear(in_features=768, out_features=768, bias=True)
  )
  (layer_norm1): LayerNorm((768,), eps=1e-05, elementwise_affine=True)
  (mlp): CLIPMLP(
    (activation_fn): QuickGELUActivation()
    (fc1): Linear(in_features=768, out_features=3072, bias=True)
    (fc2): Linear(in_features=3072, out_features=768, bias=True)
  )
  (layer_norm2): LayerNorm((768,), eps=1e-05, elementwise_affine=True)
), CLIPAttention(
  (k_proj): Linear(in_features=768, out_features=768, bias=True)
  (v_proj): Linear(in_features=768, out_features=768, bias=True)
  (q_proj): Linear(in_features=768, out_features=768, bias=True)
  (out_proj): Linear(in_features=768, out_features=768, bias=True)
), Linear(in_features=768, out_features=768, bias=True), Linear(in_features=768, out_features=768, bias=True), Linear(in_features=768, out_features=768, bias=True), Linear(in_features=768, out_features=768, bias=True), LayerNorm((768,), eps=1e-05, elementwise_affine=True), CLIPMLP(
  (activation_fn): QuickGELUActivation()
  (fc1): Linear(in_features=768, out_features=3072, bias=True)
  (fc2): Linear(in_features=3072, out_features=768, bias=True)
), QuickGELUActivation(), Linear(in_features=768, out_features=3072, bias=True), Linear(in_features=3072, out_features=768, bias=True), LayerNorm((768,), eps=1e-05, elementwise_affine=True), CLIPEncoderLayer(
  (self_attn): CLIPAttention(
    (k_proj): Linear(in_features=768, out_features=768, bias=True)
    (v_proj): Linear(in_features=768, out_features=768, bias=True)
    (q_proj): Linear(in_features=768, out_features=768, bias=True)
    (out_proj): Linear(in_features=768, out_features=768, bias=True)
  )
  (layer_norm1): LayerNorm((768,), eps=1e-05, elementwise_affine=True)
  (mlp): CLIPMLP(
    (activation_fn): QuickGELUActivation()
    (fc1): Linear(in_features=768, out_features=3072, bias=True)
    (fc2): Linear(in_features=3072, out_features=768, bias=True)
  )
  (layer_norm2): LayerNorm((768,), eps=1e-05, elementwise_affine=True)
), CLIPAttention(
  (k_proj): Linear(in_features=768, out_features=768, bias=True)
  (v_proj): Linear(in_features=768, out_features=768, bias=True)
  (q_proj): Linear(in_features=768, out_features=768, bias=True)
  (out_proj): Linear(in_features=768, out_features=768, bias=True)
), Linear(in_features=768, out_features=768, bias=True), Linear(in_features=768, out_features=768, bias=True), Linear(in_features=768, out_features=768, bias=True), Linear(in_features=768, out_features=768, bias=True), LayerNorm((768,), eps=1e-05, elementwise_affine=True), CLIPMLP(
  (activation_fn): QuickGELUActivation()
  (fc1): Linear(in_features=768, out_features=3072, bias=True)
  (fc2): Linear(in_features=3072, out_features=768, bias=True)
), QuickGELUActivation(), Linear(in_features=768, out_features=3072, bias=True), Linear(in_features=3072, out_features=768, bias=True), LayerNorm((768,), eps=1e-05, elementwise_affine=True), CLIPEncoderLayer(
  (self_attn): CLIPAttention(
    (k_proj): Linear(in_features=768, out_features=768, bias=True)
    (v_proj): Linear(in_features=768, out_features=768, bias=True)
    (q_proj): Linear(in_features=768, out_features=768, bias=True)
    (out_proj): Linear(in_features=768, out_features=768, bias=True)
  )
  (layer_norm1): LayerNorm((768,), eps=1e-05, elementwise_affine=True)
  (mlp): CLIPMLP(
    (activation_fn): QuickGELUActivation()
    (fc1): Linear(in_features=768, out_features=3072, bias=True)
    (fc2): Linear(in_features=3072, out_features=768, bias=True)
  )
  (layer_norm2): LayerNorm((768,), eps=1e-05, elementwise_affine=True)
), CLIPAttention(
  (k_proj): Linear(in_features=768, out_features=768, bias=True)
  (v_proj): Linear(in_features=768, out_features=768, bias=True)
  (q_proj): Linear(in_features=768, out_features=768, bias=True)
  (out_proj): Linear(in_features=768, out_features=768, bias=True)
), Linear(in_features=768, out_features=768, bias=True), Linear(in_features=768, out_features=768, bias=True), Linear(in_features=768, out_features=768, bias=True), Linear(in_features=768, out_features=768, bias=True), LayerNorm((768,), eps=1e-05, elementwise_affine=True), CLIPMLP(
  (activation_fn): QuickGELUActivation()
  (fc1): Linear(in_features=768, out_features=3072, bias=True)
  (fc2): Linear(in_features=3072, out_features=768, bias=True)
), QuickGELUActivation(), Linear(in_features=768, out_features=3072, bias=True), Linear(in_features=3072, out_features=768, bias=True), LayerNorm((768,), eps=1e-05, elementwise_affine=True), CLIPEncoderLayer(
  (self_attn): CLIPAttention(
    (k_proj): Linear(in_features=768, out_features=768, bias=True)
    (v_proj): Linear(in_features=768, out_features=768, bias=True)
    (q_proj): Linear(in_features=768, out_features=768, bias=True)
    (out_proj): Linear(in_features=768, out_features=768, bias=True)
  )
  (layer_norm1): LayerNorm((768,), eps=1e-05, elementwise_affine=True)
  (mlp): CLIPMLP(
    (activation_fn): QuickGELUActivation()
    (fc1): Linear(in_features=768, out_features=3072, bias=True)
    (fc2): Linear(in_features=3072, out_features=768, bias=True)
  )
  (layer_norm2): LayerNorm((768,), eps=1e-05, elementwise_affine=True)
), CLIPAttention(
  (k_proj): Linear(in_features=768, out_features=768, bias=True)
  (v_proj): Linear(in_features=768, out_features=768, bias=True)
  (q_proj): Linear(in_features=768, out_features=768, bias=True)
  (out_proj): Linear(in_features=768, out_features=768, bias=True)
), Linear(in_features=768, out_features=768, bias=True), Linear(in_features=768, out_features=768, bias=True), Linear(in_features=768, out_features=768, bias=True), Linear(in_features=768, out_features=768, bias=True), LayerNorm((768,), eps=1e-05, elementwise_affine=True), CLIPMLP(
  (activation_fn): QuickGELUActivation()
  (fc1): Linear(in_features=768, out_features=3072, bias=True)
  (fc2): Linear(in_features=3072, out_features=768, bias=True)
), QuickGELUActivation(), Linear(in_features=768, out_features=3072, bias=True), Linear(in_features=3072, out_features=768, bias=True), LayerNorm((768,), eps=1e-05, elementwise_affine=True), CLIPEncoderLayer(
  (self_attn): CLIPAttention(
    (k_proj): Linear(in_features=768, out_features=768, bias=True)
    (v_proj): Linear(in_features=768, out_features=768, bias=True)
    (q_proj): Linear(in_features=768, out_features=768, bias=True)
    (out_proj): Linear(in_features=768, out_features=768, bias=True)
  )
  (layer_norm1): LayerNorm((768,), eps=1e-05, elementwise_affine=True)
  (mlp): CLIPMLP(
    (activation_fn): QuickGELUActivation()
    (fc1): Linear(in_features=768, out_features=3072, bias=True)
    (fc2): Linear(in_features=3072, out_features=768, bias=True)
  )
  (layer_norm2): LayerNorm((768,), eps=1e-05, elementwise_affine=True)
), CLIPAttention(
  (k_proj): Linear(in_features=768, out_features=768, bias=True)
  (v_proj): Linear(in_features=768, out_features=768, bias=True)
  (q_proj): Linear(in_features=768, out_features=768, bias=True)
  (out_proj): Linear(in_features=768, out_features=768, bias=True)
), Linear(in_features=768, out_features=768, bias=True), Linear(in_features=768, out_features=768, bias=True), Linear(in_features=768, out_features=768, bias=True), Linear(in_features=768, out_features=768, bias=True), LayerNorm((768,), eps=1e-05, elementwise_affine=True), CLIPMLP(
  (activation_fn): QuickGELUActivation()
  (fc1): Linear(in_features=768, out_features=3072, bias=True)
  (fc2): Linear(in_features=3072, out_features=768, bias=True)
), QuickGELUActivation(), Linear(in_features=768, out_features=3072, bias=True), Linear(in_features=3072, out_features=768, bias=True), LayerNorm((768,), eps=1e-05, elementwise_affine=True), CLIPEncoderLayer(
  (self_attn): CLIPAttention(
    (k_proj): Linear(in_features=768, out_features=768, bias=True)
    (v_proj): Linear(in_features=768, out_features=768, bias=True)
    (q_proj): Linear(in_features=768, out_features=768, bias=True)
    (out_proj): Linear(in_features=768, out_features=768, bias=True)
  )
  (layer_norm1): LayerNorm((768,), eps=1e-05, elementwise_affine=True)
  (mlp): CLIPMLP(
    (activation_fn): QuickGELUActivation()
    (fc1): Linear(in_features=768, out_features=3072, bias=True)
    (fc2): Linear(in_features=3072, out_features=768, bias=True)
  )
  (layer_norm2): LayerNorm((768,), eps=1e-05, elementwise_affine=True)
), CLIPAttention(
  (k_proj): Linear(in_features=768, out_features=768, bias=True)
  (v_proj): Linear(in_features=768, out_features=768, bias=True)
  (q_proj): Linear(in_features=768, out_features=768, bias=True)
  (out_proj): Linear(in_features=768, out_features=768, bias=True)
), Linear(in_features=768, out_features=768, bias=True), Linear(in_features=768, out_features=768, bias=True), Linear(in_features=768, out_features=768, bias=True), Linear(in_features=768, out_features=768, bias=True), LayerNorm((768,), eps=1e-05, elementwise_affine=True), CLIPMLP(
  (activation_fn): QuickGELUActivation()
  (fc1): Linear(in_features=768, out_features=3072, bias=True)
  (fc2): Linear(in_features=3072, out_features=768, bias=True)
), QuickGELUActivation(), Linear(in_features=768, out_features=3072, bias=True), Linear(in_features=3072, out_features=768, bias=True), LayerNorm((768,), eps=1e-05, elementwise_affine=True), CLIPEncoderLayer(
  (self_attn): CLIPAttention(
    (k_proj): Linear(in_features=768, out_features=768, bias=True)
    (v_proj): Linear(in_features=768, out_features=768, bias=True)
    (q_proj): Linear(in_features=768, out_features=768, bias=True)
    (out_proj): Linear(in_features=768, out_features=768, bias=True)
  )
  (layer_norm1): LayerNorm((768,), eps=1e-05, elementwise_affine=True)
  (mlp): CLIPMLP(
    (activation_fn): QuickGELUActivation()
    (fc1): Linear(in_features=768, out_features=3072, bias=True)
    (fc2): Linear(in_features=3072, out_features=768, bias=True)
  )
  (layer_norm2): LayerNorm((768,), eps=1e-05, elementwise_affine=True)
), CLIPAttention(
  (k_proj): Linear(in_features=768, out_features=768, bias=True)
  (v_proj): Linear(in_features=768, out_features=768, bias=True)
  (q_proj): Linear(in_features=768, out_features=768, bias=True)
  (out_proj): Linear(in_features=768, out_features=768, bias=True)
), Linear(in_features=768, out_features=768, bias=True), Linear(in_features=768, out_features=768, bias=True), Linear(in_features=768, out_features=768, bias=True), Linear(in_features=768, out_features=768, bias=True), LayerNorm((768,), eps=1e-05, elementwise_affine=True), CLIPMLP(
  (activation_fn): QuickGELUActivation()
  (fc1): Linear(in_features=768, out_features=3072, bias=True)
  (fc2): Linear(in_features=3072, out_features=768, bias=True)
), QuickGELUActivation(), Linear(in_features=768, out_features=3072, bias=True), Linear(in_features=3072, out_features=768, bias=True), LayerNorm((768,), eps=1e-05, elementwise_affine=True), CLIPEncoderLayer(
  (self_attn): CLIPAttention(
    (k_proj): Linear(in_features=768, out_features=768, bias=True)
    (v_proj): Linear(in_features=768, out_features=768, bias=True)
    (q_proj): Linear(in_features=768, out_features=768, bias=True)
    (out_proj): Linear(in_features=768, out_features=768, bias=True)
  )
  (layer_norm1): LayerNorm((768,), eps=1e-05, elementwise_affine=True)
  (mlp): CLIPMLP(
    (activation_fn): QuickGELUActivation()
    (fc1): Linear(in_features=768, out_features=3072, bias=True)
    (fc2): Linear(in_features=3072, out_features=768, bias=True)
  )
  (layer_norm2): LayerNorm((768,), eps=1e-05, elementwise_affine=True)
), CLIPAttention(
  (k_proj): Linear(in_features=768, out_features=768, bias=True)
  (v_proj): Linear(in_features=768, out_features=768, bias=True)
  (q_proj): Linear(in_features=768, out_features=768, bias=True)
  (out_proj): Linear(in_features=768, out_features=768, bias=True)
), Linear(in_features=768, out_features=768, bias=True), Linear(in_features=768, out_features=768, bias=True), Linear(in_features=768, out_features=768, bias=True), Linear(in_features=768, out_features=768, bias=True), LayerNorm((768,), eps=1e-05, elementwise_affine=True), CLIPMLP(
  (activation_fn): QuickGELUActivation()
  (fc1): Linear(in_features=768, out_features=3072, bias=True)
  (fc2): Linear(in_features=3072, out_features=768, bias=True)
), QuickGELUActivation(), Linear(in_features=768, out_features=3072, bias=True), Linear(in_features=3072, out_features=768, bias=True), LayerNorm((768,), eps=1e-05, elementwise_affine=True), CLIPEncoderLayer(
  (self_attn): CLIPAttention(
    (k_proj): Linear(in_features=768, out_features=768, bias=True)
    (v_proj): Linear(in_features=768, out_features=768, bias=True)
    (q_proj): Linear(in_features=768, out_features=768, bias=True)
    (out_proj): Linear(in_features=768, out_features=768, bias=True)
  )
  (layer_norm1): LayerNorm((768,), eps=1e-05, elementwise_affine=True)
  (mlp): CLIPMLP(
    (activation_fn): QuickGELUActivation()
    (fc1): Linear(in_features=768, out_features=3072, bias=True)
    (fc2): Linear(in_features=3072, out_features=768, bias=True)
  )
  (layer_norm2): LayerNorm((768,), eps=1e-05, elementwise_affine=True)
), CLIPAttention(
  (k_proj): Linear(in_features=768, out_features=768, bias=True)
  (v_proj): Linear(in_features=768, out_features=768, bias=True)
  (q_proj): Linear(in_features=768, out_features=768, bias=True)
  (out_proj): Linear(in_features=768, out_features=768, bias=True)
), Linear(in_features=768, out_features=768, bias=True), Linear(in_features=768, out_features=768, bias=True), Linear(in_features=768, out_features=768, bias=True), Linear(in_features=768, out_features=768, bias=True), LayerNorm((768,), eps=1e-05, elementwise_affine=True), CLIPMLP(
  (activation_fn): QuickGELUActivation()
  (fc1): Linear(in_features=768, out_features=3072, bias=True)
  (fc2): Linear(in_features=3072, out_features=768, bias=True)
), QuickGELUActivation(), Linear(in_features=768, out_features=3072, bias=True), Linear(in_features=3072, out_features=768, bias=True), LayerNorm((768,), eps=1e-05, elementwise_affine=True), CLIPEncoderLayer(
  (self_attn): CLIPAttention(
    (k_proj): Linear(in_features=768, out_features=768, bias=True)
    (v_proj): Linear(in_features=768, out_features=768, bias=True)
    (q_proj): Linear(in_features=768, out_features=768, bias=True)
    (out_proj): Linear(in_features=768, out_features=768, bias=True)
  )
  (layer_norm1): LayerNorm((768,), eps=1e-05, elementwise_affine=True)
  (mlp): CLIPMLP(
    (activation_fn): QuickGELUActivation()
    (fc1): Linear(in_features=768, out_features=3072, bias=True)
    (fc2): Linear(in_features=3072, out_features=768, bias=True)
  )
  (layer_norm2): LayerNorm((768,), eps=1e-05, elementwise_affine=True)
), CLIPAttention(
  (k_proj): Linear(in_features=768, out_features=768, bias=True)
  (v_proj): Linear(in_features=768, out_features=768, bias=True)
  (q_proj): Linear(in_features=768, out_features=768, bias=True)
  (out_proj): Linear(in_features=768, out_features=768, bias=True)
), Linear(in_features=768, out_features=768, bias=True), Linear(in_features=768, out_features=768, bias=True), Linear(in_features=768, out_features=768, bias=True), Linear(in_features=768, out_features=768, bias=True), LayerNorm((768,), eps=1e-05, elementwise_affine=True), CLIPMLP(
  (activation_fn): QuickGELUActivation()
  (fc1): Linear(in_features=768, out_features=3072, bias=True)
  (fc2): Linear(in_features=3072, out_features=768, bias=True)
), QuickGELUActivation(), Linear(in_features=768, out_features=3072, bias=True), Linear(in_features=3072, out_features=768, bias=True), LayerNorm((768,), eps=1e-05, elementwise_affine=True), CLIPEncoderLayer(
  (self_attn): CLIPAttention(
    (k_proj): Linear(in_features=768, out_features=768, bias=True)
    (v_proj): Linear(in_features=768, out_features=768, bias=True)
    (q_proj): Linear(in_features=768, out_features=768, bias=True)
    (out_proj): Linear(in_features=768, out_features=768, bias=True)
  )
  (layer_norm1): LayerNorm((768,), eps=1e-05, elementwise_affine=True)
  (mlp): CLIPMLP(
    (activation_fn): QuickGELUActivation()
    (fc1): Linear(in_features=768, out_features=3072, bias=True)
    (fc2): Linear(in_features=3072, out_features=768, bias=True)
  )
  (layer_norm2): LayerNorm((768,), eps=1e-05, elementwise_affine=True)
), CLIPAttention(
  (k_proj): Linear(in_features=768, out_features=768, bias=True)
  (v_proj): Linear(in_features=768, out_features=768, bias=True)
  (q_proj): Linear(in_features=768, out_features=768, bias=True)
  (out_proj): Linear(in_features=768, out_features=768, bias=True)
), Linear(in_features=768, out_features=768, bias=True), Linear(in_features=768, out_features=768, bias=True), Linear(in_features=768, out_features=768, bias=True), Linear(in_features=768, out_features=768, bias=True), LayerNorm((768,), eps=1e-05, elementwise_affine=True), CLIPMLP(
  (activation_fn): QuickGELUActivation()
  (fc1): Linear(in_features=768, out_features=3072, bias=True)
  (fc2): Linear(in_features=3072, out_features=768, bias=True)
), QuickGELUActivation(), Linear(in_features=768, out_features=3072, bias=True), Linear(in_features=3072, out_features=768, bias=True), LayerNorm((768,), eps=1e-05, elementwise_affine=True), LayerNorm((768,), eps=1e-05, elementwise_affine=True), UNet2DConditionModel(
  (conv_in): Conv2d(4, 320, kernel_size=(3, 3), stride=(1, 1), padding=(1, 1))
  (time_proj): Timesteps()
  (time_embedding): TimestepEmbedding(
    (linear_1): Linear(in_features=320, out_features=1280, bias=True)
    (act): SiLU()
    (linear_2): Linear(in_features=1280, out_features=1280, bias=True)
  )
  (down_blocks): ModuleList(
    (0): CrossAttnDownBlock2D(
      (attentions): ModuleList(
        (0-1): 2 x Transformer2DModel(
          (norm): GroupNorm(32, 320, eps=1e-06, affine=True)
          (proj_in): Conv2d(320, 320, kernel_size=(1, 1), stride=(1, 1))
          (transformer_blocks): ModuleList(
            (0): BasicTransformerBlock(
              (norm1): LayerNorm((320,), eps=1e-05, elementwise_affine=True)
              (attn1): Attention(
                (to_q): Linear(in_features=320, out_features=320, bias=False)
                (to_k): Linear(in_features=320, out_features=320, bias=False)
                (to_v): Linear(in_features=320, out_features=320, bias=False)
                (to_out): ModuleList(
                  (0): Linear(in_features=320, out_features=320, bias=True)
                  (1): Dropout(p=0.0, inplace=False)
                )
              )
              (norm2): LayerNorm((320,), eps=1e-05, elementwise_affine=True)
              (attn2): Attention(
                (to_q): Linear(in_features=320, out_features=320, bias=False)
                (to_k): Linear(in_features=768, out_features=320, bias=False)
                (to_v): Linear(in_features=768, out_features=320, bias=False)
                (to_out): ModuleList(
                  (0): Linear(in_features=320, out_features=320, bias=True)
                  (1): Dropout(p=0.0, inplace=False)
                )
              )
              (norm3): LayerNorm((320,), eps=1e-05, elementwise_affine=True)
              (ff): FeedForward(
                (net): ModuleList(
                  (0): GEGLU(
                    (proj): Linear(in_features=320, out_features=2560, bias=True)
                  )
                  (1): Dropout(p=0.0, inplace=False)
                  (2): Linear(in_features=1280, out_features=320, bias=True)
                )
              )
            )
          )
          (proj_out): Conv2d(320, 320, kernel_size=(1, 1), stride=(1, 1))
        )
      )
      (resnets): ModuleList(
        (0-1): 2 x ResnetBlock2D(
          (norm1): GroupNorm(32, 320, eps=1e-05, affine=True)
          (conv1): Conv2d(320, 320, kernel_size=(3, 3), stride=(1, 1), padding=(1, 1))
          (time_emb_proj): Linear(in_features=1280, out_features=320, bias=True)
          (norm2): GroupNorm(32, 320, eps=1e-05, affine=True)
          (dropout): Dropout(p=0.0, inplace=False)
          (conv2): Conv2d(320, 320, kernel_size=(3, 3), stride=(1, 1), padding=(1, 1))
          (nonlinearity): SiLU()
        )
      )
      (downsamplers): ModuleList(
        (0): Downsample2D(
          (conv): Conv2d(320, 320, kernel_size=(3, 3), stride=(2, 2), padding=(1, 1))
        )
      )
    )
    (1): CrossAttnDownBlock2D(
      (attentions): ModuleList(
        (0-1): 2 x Transformer2DModel(
          (norm): GroupNorm(32, 640, eps=1e-06, affine=True)
          (proj_in): Conv2d(640, 640, kernel_size=(1, 1), stride=(1, 1))
          (transformer_blocks): ModuleList(
            (0): BasicTransformerBlock(
              (norm1): LayerNorm((640,), eps=1e-05, elementwise_affine=True)
              (attn1): Attention(
                (to_q): Linear(in_features=640, out_features=640, bias=False)
                (to_k): Linear(in_features=640, out_features=640, bias=False)
                (to_v): Linear(in_features=640, out_features=640, bias=False)
                (to_out): ModuleList(
                  (0): Linear(in_features=640, out_features=640, bias=True)
                  (1): Dropout(p=0.0, inplace=False)
                )
              )
              (norm2): LayerNorm((640,), eps=1e-05, elementwise_affine=True)
              (attn2): Attention(
                (to_q): Linear(in_features=640, out_features=640, bias=False)
                (to_k): Linear(in_features=768, out_features=640, bias=False)
                (to_v): Linear(in_features=768, out_features=640, bias=False)
                (to_out): ModuleList(
                  (0): Linear(in_features=640, out_features=640, bias=True)
                  (1): Dropout(p=0.0, inplace=False)
                )
              )
              (norm3): LayerNorm((640,), eps=1e-05, elementwise_affine=True)
              (ff): FeedForward(
                (net): ModuleList(
                  (0): GEGLU(
                    (proj): Linear(in_features=640, out_features=5120, bias=True)
                  )
                  (1): Dropout(p=0.0, inplace=False)
                  (2): Linear(in_features=2560, out_features=640, bias=True)
                )
              )
            )
          )
          (proj_out): Conv2d(640, 640, kernel_size=(1, 1), stride=(1, 1))
        )
      )
      (resnets): ModuleList(
        (0): ResnetBlock2D(
          (norm1): GroupNorm(32, 320, eps=1e-05, affine=True)
          (conv1): Conv2d(320, 640, kernel_size=(3, 3), stride=(1, 1), padding=(1, 1))
          (time_emb_proj): Linear(in_features=1280, out_features=640, bias=True)
          (norm2): GroupNorm(32, 640, eps=1e-05, affine=True)
          (dropout): Dropout(p=0.0, inplace=False)
          (conv2): Conv2d(640, 640, kernel_size=(3, 3), stride=(1, 1), padding=(1, 1))
          (nonlinearity): SiLU()
          (conv_shortcut): Conv2d(320, 640, kernel_size=(1, 1), stride=(1, 1))
        )
        (1): ResnetBlock2D(
          (norm1): GroupNorm(32, 640, eps=1e-05, affine=True)
          (conv1): Conv2d(640, 640, kernel_size=(3, 3), stride=(1, 1), padding=(1, 1))
          (time_emb_proj): Linear(in_features=1280, out_features=640, bias=True)
          (norm2): GroupNorm(32, 640, eps=1e-05, affine=True)
          (dropout): Dropout(p=0.0, inplace=False)
          (conv2): Conv2d(640, 640, kernel_size=(3, 3), stride=(1, 1), padding=(1, 1))
          (nonlinearity): SiLU()
        )
      )
      (downsamplers): ModuleList(
        (0): Downsample2D(
          (conv): Conv2d(640, 640, kernel_size=(3, 3), stride=(2, 2), padding=(1, 1))
        )
      )
    )
    (2): CrossAttnDownBlock2D(
      (attentions): ModuleList(
        (0-1): 2 x Transformer2DModel(
          (norm): GroupNorm(32, 1280, eps=1e-06, affine=True)
          (proj_in): Conv2d(1280, 1280, kernel_size=(1, 1), stride=(1, 1))
          (transformer_blocks): ModuleList(
            (0): BasicTransformerBlock(
              (norm1): LayerNorm((1280,), eps=1e-05, elementwise_affine=True)
              (attn1): Attention(
                (to_q): Linear(in_features=1280, out_features=1280, bias=False)
                (to_k): Linear(in_features=1280, out_features=1280, bias=False)
                (to_v): Linear(in_features=1280, out_features=1280, bias=False)
                (to_out): ModuleList(
                  (0): Linear(in_features=1280, out_features=1280, bias=True)
                  (1): Dropout(p=0.0, inplace=False)
                )
              )
              (norm2): LayerNorm((1280,), eps=1e-05, elementwise_affine=True)
              (attn2): Attention(
                (to_q): Linear(in_features=1280, out_features=1280, bias=False)
                (to_k): Linear(in_features=768, out_features=1280, bias=False)
                (to_v): Linear(in_features=768, out_features=1280, bias=False)
                (to_out): ModuleList(
                  (0): Linear(in_features=1280, out_features=1280, bias=True)
                  (1): Dropout(p=0.0, inplace=False)
                )
              )
              (norm3): LayerNorm((1280,), eps=1e-05, elementwise_affine=True)
              (ff): FeedForward(
                (net): ModuleList(
                  (0): GEGLU(
                    (proj): Linear(in_features=1280, out_features=10240, bias=True)
                  )
                  (1): Dropout(p=0.0, inplace=False)
                  (2): Linear(in_features=5120, out_features=1280, bias=True)
                )
              )
            )
          )
          (proj_out): Conv2d(1280, 1280, kernel_size=(1, 1), stride=(1, 1))
        )
      )
      (resnets): ModuleList(
        (0): ResnetBlock2D(
          (norm1): GroupNorm(32, 640, eps=1e-05, affine=True)
          (conv1): Conv2d(640, 1280, kernel_size=(3, 3), stride=(1, 1), padding=(1, 1))
          (time_emb_proj): Linear(in_features=1280, out_features=1280, bias=True)
          (norm2): GroupNorm(32, 1280, eps=1e-05, affine=True)
          (dropout): Dropout(p=0.0, inplace=False)
          (conv2): Conv2d(1280, 1280, kernel_size=(3, 3), stride=(1, 1), padding=(1, 1))
          (nonlinearity): SiLU()
          (conv_shortcut): Conv2d(640, 1280, kernel_size=(1, 1), stride=(1, 1))
        )
        (1): ResnetBlock2D(
          (norm1): GroupNorm(32, 1280, eps=1e-05, affine=True)
          (conv1): Conv2d(1280, 1280, kernel_size=(3, 3), stride=(1, 1), padding=(1, 1))
          (time_emb_proj): Linear(in_features=1280, out_features=1280, bias=True)
          (norm2): GroupNorm(32, 1280, eps=1e-05, affine=True)
          (dropout): Dropout(p=0.0, inplace=False)
          (conv2): Conv2d(1280, 1280, kernel_size=(3, 3), stride=(1, 1), padding=(1, 1))
          (nonlinearity): SiLU()
        )
      )
      (downsamplers): ModuleList(
        (0): Downsample2D(
          (conv): Conv2d(1280, 1280, kernel_size=(3, 3), stride=(2, 2), padding=(1, 1))
        )
      )
    )
    (3): DownBlock2D(
      (resnets): ModuleList(
        (0-1): 2 x ResnetBlock2D(
          (norm1): GroupNorm(32, 1280, eps=1e-05, affine=True)
          (conv1): Conv2d(1280, 1280, kernel_size=(3, 3), stride=(1, 1), padding=(1, 1))
          (time_emb_proj): Linear(in_features=1280, out_features=1280, bias=True)
          (norm2): GroupNorm(32, 1280, eps=1e-05, affine=True)
          (dropout): Dropout(p=0.0, inplace=False)
          (conv2): Conv2d(1280, 1280, kernel_size=(3, 3), stride=(1, 1), padding=(1, 1))
          (nonlinearity): SiLU()
        )
      )
    )
  )
  (up_blocks): ModuleList(
    (0): UpBlock2D(
      (resnets): ModuleList(
        (0-2): 3 x ResnetBlock2D(
          (norm1): GroupNorm(32, 2560, eps=1e-05, affine=True)
          (conv1): Conv2d(2560, 1280, kernel_size=(3, 3), stride=(1, 1), padding=(1, 1))
          (time_emb_proj): Linear(in_features=1280, out_features=1280, bias=True)
          (norm2): GroupNorm(32, 1280, eps=1e-05, affine=True)
          (dropout): Dropout(p=0.0, inplace=False)
          (conv2): Conv2d(1280, 1280, kernel_size=(3, 3), stride=(1, 1), padding=(1, 1))
          (nonlinearity): SiLU()
          (conv_shortcut): Conv2d(2560, 1280, kernel_size=(1, 1), stride=(1, 1))
        )
      )
      (upsamplers): ModuleList(
        (0): Upsample2D(
          (conv): Conv2d(1280, 1280, kernel_size=(3, 3), stride=(1, 1), padding=(1, 1))
        )
      )
    )
    (1): CrossAttnUpBlock2D(
      (attentions): ModuleList(
        (0-2): 3 x Transformer2DModel(
          (norm): GroupNorm(32, 1280, eps=1e-06, affine=True)
          (proj_in): Conv2d(1280, 1280, kernel_size=(1, 1), stride=(1, 1))
          (transformer_blocks): ModuleList(
            (0): BasicTransformerBlock(
              (norm1): LayerNorm((1280,), eps=1e-05, elementwise_affine=True)
              (attn1): Attention(
                (to_q): Linear(in_features=1280, out_features=1280, bias=False)
                (to_k): Linear(in_features=1280, out_features=1280, bias=False)
                (to_v): Linear(in_features=1280, out_features=1280, bias=False)
                (to_out): ModuleList(
                  (0): Linear(in_features=1280, out_features=1280, bias=True)
                  (1): Dropout(p=0.0, inplace=False)
                )
              )
              (norm2): LayerNorm((1280,), eps=1e-05, elementwise_affine=True)
              (attn2): Attention(
                (to_q): Linear(in_features=1280, out_features=1280, bias=False)
                (to_k): Linear(in_features=768, out_features=1280, bias=False)
                (to_v): Linear(in_features=768, out_features=1280, bias=False)
                (to_out): ModuleList(
                  (0): Linear(in_features=1280, out_features=1280, bias=True)
                  (1): Dropout(p=0.0, inplace=False)
                )
              )
              (norm3): LayerNorm((1280,), eps=1e-05, elementwise_affine=True)
              (ff): FeedForward(
                (net): ModuleList(
                  (0): GEGLU(
                    (proj): Linear(in_features=1280, out_features=10240, bias=True)
                  )
                  (1): Dropout(p=0.0, inplace=False)
                  (2): Linear(in_features=5120, out_features=1280, bias=True)
                )
              )
            )
          )
          (proj_out): Conv2d(1280, 1280, kernel_size=(1, 1), stride=(1, 1))
        )
      )
      (resnets): ModuleList(
        (0-1): 2 x ResnetBlock2D(
          (norm1): GroupNorm(32, 2560, eps=1e-05, affine=True)
          (conv1): Conv2d(2560, 1280, kernel_size=(3, 3), stride=(1, 1), padding=(1, 1))
          (time_emb_proj): Linear(in_features=1280, out_features=1280, bias=True)
          (norm2): GroupNorm(32, 1280, eps=1e-05, affine=True)
          (dropout): Dropout(p=0.0, inplace=False)
          (conv2): Conv2d(1280, 1280, kernel_size=(3, 3), stride=(1, 1), padding=(1, 1))
          (nonlinearity): SiLU()
          (conv_shortcut): Conv2d(2560, 1280, kernel_size=(1, 1), stride=(1, 1))
        )
        (2): ResnetBlock2D(
          (norm1): GroupNorm(32, 1920, eps=1e-05, affine=True)
          (conv1): Conv2d(1920, 1280, kernel_size=(3, 3), stride=(1, 1), padding=(1, 1))
          (time_emb_proj): Linear(in_features=1280, out_features=1280, bias=True)
          (norm2): GroupNorm(32, 1280, eps=1e-05, affine=True)
          (dropout): Dropout(p=0.0, inplace=False)
          (conv2): Conv2d(1280, 1280, kernel_size=(3, 3), stride=(1, 1), padding=(1, 1))
          (nonlinearity): SiLU()
          (conv_shortcut): Conv2d(1920, 1280, kernel_size=(1, 1), stride=(1, 1))
        )
      )
      (upsamplers): ModuleList(
        (0): Upsample2D(
          (conv): Conv2d(1280, 1280, kernel_size=(3, 3), stride=(1, 1), padding=(1, 1))
        )
      )
    )
    (2): CrossAttnUpBlock2D(
      (attentions): ModuleList(
        (0-2): 3 x Transformer2DModel(
          (norm): GroupNorm(32, 640, eps=1e-06, affine=True)
          (proj_in): Conv2d(640, 640, kernel_size=(1, 1), stride=(1, 1))
          (transformer_blocks): ModuleList(
            (0): BasicTransformerBlock(
              (norm1): LayerNorm((640,), eps=1e-05, elementwise_affine=True)
              (attn1): Attention(
                (to_q): Linear(in_features=640, out_features=640, bias=False)
                (to_k): Linear(in_features=640, out_features=640, bias=False)
                (to_v): Linear(in_features=640, out_features=640, bias=False)
                (to_out): ModuleList(
                  (0): Linear(in_features=640, out_features=640, bias=True)
                  (1): Dropout(p=0.0, inplace=False)
                )
              )
              (norm2): LayerNorm((640,), eps=1e-05, elementwise_affine=True)
              (attn2): Attention(
                (to_q): Linear(in_features=640, out_features=640, bias=False)
                (to_k): Linear(in_features=768, out_features=640, bias=False)
                (to_v): Linear(in_features=768, out_features=640, bias=False)
                (to_out): ModuleList(
                  (0): Linear(in_features=640, out_features=640, bias=True)
                  (1): Dropout(p=0.0, inplace=False)
                )
              )
              (norm3): LayerNorm((640,), eps=1e-05, elementwise_affine=True)
              (ff): FeedForward(
                (net): ModuleList(
                  (0): GEGLU(
                    (proj): Linear(in_features=640, out_features=5120, bias=True)
                  )
                  (1): Dropout(p=0.0, inplace=False)
                  (2): Linear(in_features=2560, out_features=640, bias=True)
                )
              )
            )
          )
          (proj_out): Conv2d(640, 640, kernel_size=(1, 1), stride=(1, 1))
        )
      )
      (resnets): ModuleList(
        (0): ResnetBlock2D(
          (norm1): GroupNorm(32, 1920, eps=1e-05, affine=True)
          (conv1): Conv2d(1920, 640, kernel_size=(3, 3), stride=(1, 1), padding=(1, 1))
          (time_emb_proj): Linear(in_features=1280, out_features=640, bias=True)
          (norm2): GroupNorm(32, 640, eps=1e-05, affine=True)
          (dropout): Dropout(p=0.0, inplace=False)
          (conv2): Conv2d(640, 640, kernel_size=(3, 3), stride=(1, 1), padding=(1, 1))
          (nonlinearity): SiLU()
          (conv_shortcut): Conv2d(1920, 640, kernel_size=(1, 1), stride=(1, 1))
        )
        (1): ResnetBlock2D(
          (norm1): GroupNorm(32, 1280, eps=1e-05, affine=True)
          (conv1): Conv2d(1280, 640, kernel_size=(3, 3), stride=(1, 1), padding=(1, 1))
          (time_emb_proj): Linear(in_features=1280, out_features=640, bias=True)
          (norm2): GroupNorm(32, 640, eps=1e-05, affine=True)
          (dropout): Dropout(p=0.0, inplace=False)
          (conv2): Conv2d(640, 640, kernel_size=(3, 3), stride=(1, 1), padding=(1, 1))
          (nonlinearity): SiLU()
          (conv_shortcut): Conv2d(1280, 640, kernel_size=(1, 1), stride=(1, 1))
        )
        (2): ResnetBlock2D(
          (norm1): GroupNorm(32, 960, eps=1e-05, affine=True)
          (conv1): Conv2d(960, 640, kernel_size=(3, 3), stride=(1, 1), padding=(1, 1))
          (time_emb_proj): Linear(in_features=1280, out_features=640, bias=True)
          (norm2): GroupNorm(32, 640, eps=1e-05, affine=True)
          (dropout): Dropout(p=0.0, inplace=False)
          (conv2): Conv2d(640, 640, kernel_size=(3, 3), stride=(1, 1), padding=(1, 1))
          (nonlinearity): SiLU()
          (conv_shortcut): Conv2d(960, 640, kernel_size=(1, 1), stride=(1, 1))
        )
      )
      (upsamplers): ModuleList(
        (0): Upsample2D(
          (conv): Conv2d(640, 640, kernel_size=(3, 3), stride=(1, 1), padding=(1, 1))
        )
      )
    )
    (3): CrossAttnUpBlock2D(
      (attentions): ModuleList(
        (0-2): 3 x Transformer2DModel(
          (norm): GroupNorm(32, 320, eps=1e-06, affine=True)
          (proj_in): Conv2d(320, 320, kernel_size=(1, 1), stride=(1, 1))
          (transformer_blocks): ModuleList(
            (0): BasicTransformerBlock(
              (norm1): LayerNorm((320,), eps=1e-05, elementwise_affine=True)
              (attn1): Attention(
                (to_q): Linear(in_features=320, out_features=320, bias=False)
                (to_k): Linear(in_features=320, out_features=320, bias=False)
                (to_v): Linear(in_features=320, out_features=320, bias=False)
                (to_out): ModuleList(
                  (0): Linear(in_features=320, out_features=320, bias=True)
                  (1): Dropout(p=0.0, inplace=False)
                )
              )
              (norm2): LayerNorm((320,), eps=1e-05, elementwise_affine=True)
              (attn2): Attention(
                (to_q): Linear(in_features=320, out_features=320, bias=False)
                (to_k): Linear(in_features=768, out_features=320, bias=False)
                (to_v): Linear(in_features=768, out_features=320, bias=False)
                (to_out): ModuleList(
                  (0): Linear(in_features=320, out_features=320, bias=True)
                  (1): Dropout(p=0.0, inplace=False)
                )
              )
              (norm3): LayerNorm((320,), eps=1e-05, elementwise_affine=True)
              (ff): FeedForward(
                (net): ModuleList(
                  (0): GEGLU(
                    (proj): Linear(in_features=320, out_features=2560, bias=True)
                  )
                  (1): Dropout(p=0.0, inplace=False)
                  (2): Linear(in_features=1280, out_features=320, bias=True)
                )
              )
            )
          )
          (proj_out): Conv2d(320, 320, kernel_size=(1, 1), stride=(1, 1))
        )
      )
      (resnets): ModuleList(
        (0): ResnetBlock2D(
          (norm1): GroupNorm(32, 960, eps=1e-05, affine=True)
          (conv1): Conv2d(960, 320, kernel_size=(3, 3), stride=(1, 1), padding=(1, 1))
          (time_emb_proj): Linear(in_features=1280, out_features=320, bias=True)
          (norm2): GroupNorm(32, 320, eps=1e-05, affine=True)
          (dropout): Dropout(p=0.0, inplace=False)
          (conv2): Conv2d(320, 320, kernel_size=(3, 3), stride=(1, 1), padding=(1, 1))
          (nonlinearity): SiLU()
          (conv_shortcut): Conv2d(960, 320, kernel_size=(1, 1), stride=(1, 1))
        )
        (1-2): 2 x ResnetBlock2D(
          (norm1): GroupNorm(32, 640, eps=1e-05, affine=True)
          (conv1): Conv2d(640, 320, kernel_size=(3, 3), stride=(1, 1), padding=(1, 1))
          (time_emb_proj): Linear(in_features=1280, out_features=320, bias=True)
          (norm2): GroupNorm(32, 320, eps=1e-05, affine=True)
          (dropout): Dropout(p=0.0, inplace=False)
          (conv2): Conv2d(320, 320, kernel_size=(3, 3), stride=(1, 1), padding=(1, 1))
          (nonlinearity): SiLU()
          (conv_shortcut): Conv2d(640, 320, kernel_size=(1, 1), stride=(1, 1))
        )
      )
    )
  )
  (mid_block): UNetMidBlock2DCrossAttn(
    (attentions): ModuleList(
      (0): Transformer2DModel(
        (norm): GroupNorm(32, 1280, eps=1e-06, affine=True)
        (proj_in): Conv2d(1280, 1280, kernel_size=(1, 1), stride=(1, 1))
        (transformer_blocks): ModuleList(
          (0): BasicTransformerBlock(
            (norm1): LayerNorm((1280,), eps=1e-05, elementwise_affine=True)
            (attn1): Attention(
              (to_q): Linear(in_features=1280, out_features=1280, bias=False)
              (to_k): Linear(in_features=1280, out_features=1280, bias=False)
              (to_v): Linear(in_features=1280, out_features=1280, bias=False)
              (to_out): ModuleList(
                (0): Linear(in_features=1280, out_features=1280, bias=True)
                (1): Dropout(p=0.0, inplace=False)
              )
            )
            (norm2): LayerNorm((1280,), eps=1e-05, elementwise_affine=True)
            (attn2): Attention(
              (to_q): Linear(in_features=1280, out_features=1280, bias=False)
              (to_k): Linear(in_features=768, out_features=1280, bias=False)
              (to_v): Linear(in_features=768, out_features=1280, bias=False)
              (to_out): ModuleList(
                (0): Linear(in_features=1280, out_features=1280, bias=True)
                (1): Dropout(p=0.0, inplace=False)
              )
            )
            (norm3): LayerNorm((1280,), eps=1e-05, elementwise_affine=True)
            (ff): FeedForward(
              (net): ModuleList(
                (0): GEGLU(
                  (proj): Linear(in_features=1280, out_features=10240, bias=True)
                )
                (1): Dropout(p=0.0, inplace=False)
                (2): Linear(in_features=5120, out_features=1280, bias=True)
              )
            )
          )
        )
        (proj_out): Conv2d(1280, 1280, kernel_size=(1, 1), stride=(1, 1))
      )
    )
    (resnets): ModuleList(
      (0-1): 2 x ResnetBlock2D(
        (norm1): GroupNorm(32, 1280, eps=1e-05, affine=True)
        (conv1): Conv2d(1280, 1280, kernel_size=(3, 3), stride=(1, 1), padding=(1, 1))
        (time_emb_proj): Linear(in_features=1280, out_features=1280, bias=True)
        (norm2): GroupNorm(32, 1280, eps=1e-05, affine=True)
        (dropout): Dropout(p=0.0, inplace=False)
        (conv2): Conv2d(1280, 1280, kernel_size=(3, 3), stride=(1, 1), padding=(1, 1))
        (nonlinearity): SiLU()
      )
    )
  )
  (conv_norm_out): GroupNorm(32, 320, eps=1e-05, affine=True)
  (conv_act): SiLU()
  (conv_out): Conv2d(320, 4, kernel_size=(3, 3), stride=(1, 1), padding=(1, 1))
), Conv2d(4, 320, kernel_size=(3, 3), stride=(1, 1), padding=(1, 1)), Timesteps(), TimestepEmbedding(
  (linear_1): Linear(in_features=320, out_features=1280, bias=True)
  (act): SiLU()
  (linear_2): Linear(in_features=1280, out_features=1280, bias=True)
), Linear(in_features=320, out_features=1280, bias=True), SiLU(), Linear(in_features=1280, out_features=1280, bias=True), ModuleList(
  (0): CrossAttnDownBlock2D(
    (attentions): ModuleList(
      (0-1): 2 x Transformer2DModel(
        (norm): GroupNorm(32, 320, eps=1e-06, affine=True)
        (proj_in): Conv2d(320, 320, kernel_size=(1, 1), stride=(1, 1))
        (transformer_blocks): ModuleList(
          (0): BasicTransformerBlock(
            (norm1): LayerNorm((320,), eps=1e-05, elementwise_affine=True)
            (attn1): Attention(
              (to_q): Linear(in_features=320, out_features=320, bias=False)
              (to_k): Linear(in_features=320, out_features=320, bias=False)
              (to_v): Linear(in_features=320, out_features=320, bias=False)
              (to_out): ModuleList(
                (0): Linear(in_features=320, out_features=320, bias=True)
                (1): Dropout(p=0.0, inplace=False)
              )
            )
            (norm2): LayerNorm((320,), eps=1e-05, elementwise_affine=True)
            (attn2): Attention(
              (to_q): Linear(in_features=320, out_features=320, bias=False)
              (to_k): Linear(in_features=768, out_features=320, bias=False)
              (to_v): Linear(in_features=768, out_features=320, bias=False)
              (to_out): ModuleList(
                (0): Linear(in_features=320, out_features=320, bias=True)
                (1): Dropout(p=0.0, inplace=False)
              )
            )
            (norm3): LayerNorm((320,), eps=1e-05, elementwise_affine=True)
            (ff): FeedForward(
              (net): ModuleList(
                (0): GEGLU(
                  (proj): Linear(in_features=320, out_features=2560, bias=True)
                )
                (1): Dropout(p=0.0, inplace=False)
                (2): Linear(in_features=1280, out_features=320, bias=True)
              )
            )
          )
        )
        (proj_out): Conv2d(320, 320, kernel_size=(1, 1), stride=(1, 1))
      )
    )
    (resnets): ModuleList(
      (0-1): 2 x ResnetBlock2D(
        (norm1): GroupNorm(32, 320, eps=1e-05, affine=True)
        (conv1): Conv2d(320, 320, kernel_size=(3, 3), stride=(1, 1), padding=(1, 1))
        (time_emb_proj): Linear(in_features=1280, out_features=320, bias=True)
        (norm2): GroupNorm(32, 320, eps=1e-05, affine=True)
        (dropout): Dropout(p=0.0, inplace=False)
        (conv2): Conv2d(320, 320, kernel_size=(3, 3), stride=(1, 1), padding=(1, 1))
        (nonlinearity): SiLU()
      )
    )
    (downsamplers): ModuleList(
      (0): Downsample2D(
        (conv): Conv2d(320, 320, kernel_size=(3, 3), stride=(2, 2), padding=(1, 1))
      )
    )
  )
  (1): CrossAttnDownBlock2D(
    (attentions): ModuleList(
      (0-1): 2 x Transformer2DModel(
        (norm): GroupNorm(32, 640, eps=1e-06, affine=True)
        (proj_in): Conv2d(640, 640, kernel_size=(1, 1), stride=(1, 1))
        (transformer_blocks): ModuleList(
          (0): BasicTransformerBlock(
            (norm1): LayerNorm((640,), eps=1e-05, elementwise_affine=True)
            (attn1): Attention(
              (to_q): Linear(in_features=640, out_features=640, bias=False)
              (to_k): Linear(in_features=640, out_features=640, bias=False)
              (to_v): Linear(in_features=640, out_features=640, bias=False)
              (to_out): ModuleList(
                (0): Linear(in_features=640, out_features=640, bias=True)
                (1): Dropout(p=0.0, inplace=False)
              )
            )
            (norm2): LayerNorm((640,), eps=1e-05, elementwise_affine=True)
            (attn2): Attention(
              (to_q): Linear(in_features=640, out_features=640, bias=False)
              (to_k): Linear(in_features=768, out_features=640, bias=False)
              (to_v): Linear(in_features=768, out_features=640, bias=False)
              (to_out): ModuleList(
                (0): Linear(in_features=640, out_features=640, bias=True)
                (1): Dropout(p=0.0, inplace=False)
              )
            )
            (norm3): LayerNorm((640,), eps=1e-05, elementwise_affine=True)
            (ff): FeedForward(
              (net): ModuleList(
                (0): GEGLU(
                  (proj): Linear(in_features=640, out_features=5120, bias=True)
                )
                (1): Dropout(p=0.0, inplace=False)
                (2): Linear(in_features=2560, out_features=640, bias=True)
              )
            )
          )
        )
        (proj_out): Conv2d(640, 640, kernel_size=(1, 1), stride=(1, 1))
      )
    )
    (resnets): ModuleList(
      (0): ResnetBlock2D(
        (norm1): GroupNorm(32, 320, eps=1e-05, affine=True)
        (conv1): Conv2d(320, 640, kernel_size=(3, 3), stride=(1, 1), padding=(1, 1))
        (time_emb_proj): Linear(in_features=1280, out_features=640, bias=True)
        (norm2): GroupNorm(32, 640, eps=1e-05, affine=True)
        (dropout): Dropout(p=0.0, inplace=False)
        (conv2): Conv2d(640, 640, kernel_size=(3, 3), stride=(1, 1), padding=(1, 1))
        (nonlinearity): SiLU()
        (conv_shortcut): Conv2d(320, 640, kernel_size=(1, 1), stride=(1, 1))
      )
      (1): ResnetBlock2D(
        (norm1): GroupNorm(32, 640, eps=1e-05, affine=True)
        (conv1): Conv2d(640, 640, kernel_size=(3, 3), stride=(1, 1), padding=(1, 1))
        (time_emb_proj): Linear(in_features=1280, out_features=640, bias=True)
        (norm2): GroupNorm(32, 640, eps=1e-05, affine=True)
        (dropout): Dropout(p=0.0, inplace=False)
        (conv2): Conv2d(640, 640, kernel_size=(3, 3), stride=(1, 1), padding=(1, 1))
        (nonlinearity): SiLU()
      )
    )
    (downsamplers): ModuleList(
      (0): Downsample2D(
        (conv): Conv2d(640, 640, kernel_size=(3, 3), stride=(2, 2), padding=(1, 1))
      )
    )
  )
  (2): CrossAttnDownBlock2D(
    (attentions): ModuleList(
      (0-1): 2 x Transformer2DModel(
        (norm): GroupNorm(32, 1280, eps=1e-06, affine=True)
        (proj_in): Conv2d(1280, 1280, kernel_size=(1, 1), stride=(1, 1))
        (transformer_blocks): ModuleList(
          (0): BasicTransformerBlock(
            (norm1): LayerNorm((1280,), eps=1e-05, elementwise_affine=True)
            (attn1): Attention(
              (to_q): Linear(in_features=1280, out_features=1280, bias=False)
              (to_k): Linear(in_features=1280, out_features=1280, bias=False)
              (to_v): Linear(in_features=1280, out_features=1280, bias=False)
              (to_out): ModuleList(
                (0): Linear(in_features=1280, out_features=1280, bias=True)
                (1): Dropout(p=0.0, inplace=False)
              )
            )
            (norm2): LayerNorm((1280,), eps=1e-05, elementwise_affine=True)
            (attn2): Attention(
              (to_q): Linear(in_features=1280, out_features=1280, bias=False)
              (to_k): Linear(in_features=768, out_features=1280, bias=False)
              (to_v): Linear(in_features=768, out_features=1280, bias=False)
              (to_out): ModuleList(
                (0): Linear(in_features=1280, out_features=1280, bias=True)
                (1): Dropout(p=0.0, inplace=False)
              )
            )
            (norm3): LayerNorm((1280,), eps=1e-05, elementwise_affine=True)
            (ff): FeedForward(
              (net): ModuleList(
                (0): GEGLU(
                  (proj): Linear(in_features=1280, out_features=10240, bias=True)
                )
…
    (to_k): Linear(in_features=1280, out_features=1280, bias=False)
    (to_v): Linear(in_features=1280, out_features=1280, bias=False)
    (to_out): ModuleList(
      (0): Linear(in_features=1280, out_features=1280, bias=True)
      (1): Dropout(p=0.0, inplace=False)
    )
  )
  (norm2): LayerNorm((1280,), eps=1e-05, elementwise_affine=True)
  (attn2): Attention(
    (to_q): Linear(in_features=1280, out_features=1280, bias=False)
    (to_k): Linear(in_features=768, out_features=1280, bias=False)
    (to_v): Linear(in_features=768, out_features=1280, bias=False)
    (to_out): ModuleList(
      (0): Linear(in_features=1280, out_features=1280, bias=True)
      (1): Dropout(p=0.0, inplace=False)
    )
  )
  (norm3): LayerNorm((1280,), eps=1e-05, elementwise_affine=True)
  (ff): FeedForward(
    (net): ModuleList(
      (0): GEGLU(
        (proj): Linear(in_features=1280, out_features=10240, bias=True)
      )
      (1): Dropout(p=0.0, inplace=False)
      (2): Linear(in_features=5120, out_features=1280, bias=True)
    )
  )
), LayerNorm((1280,), eps=1e-05, elementwise_affine=True), Attention(
  (to_q): Linear(in_features=1280, out_features=1280, bias=False)
  (to_k): Linear(in_features=1280, out_features=1280, bias=False)
  (to_v): Linear(in_features=1280, out_features=1280, bias=False)
  (to_out): ModuleList(
    (0): Linear(in_features=1280, out_features=1280, bias=True)
    (1): Dropout(p=0.0, inplace=False)
  )
), Linear(in_features=1280, out_features=1280, bias=False), Linear(in_features=1280, out_features=1280, bias=False), Linear(in_features=1280, out_features=1280, bias=False), ModuleList(
  (0): Linear(in_features=1280, out_features=1280, bias=True)
  (1): Dropout(p=0.0, inplace=False)
), Linear(in_features=1280, out_features=1280, bias=True), Dropout(p=0.0, inplace=False), LayerNorm((1280,), eps=1e-05, elementwise_affine=True), Attention(
  (to_q): Linear(in_features=1280, out_features=1280, bias=False)
  (to_k): Linear(in_features=768, out_features=1280, bias=False)
  (to_v): Linear(in_features=768, out_features=1280, bias=False)
  (to_out): ModuleList(
    (0): Linear(in_features=1280, out_features=1280, bias=True)
    (1): Dropout(p=0.0, inplace=False)
  )
), Linear(in_features=1280, out_features=1280, bias=False), Linear(in_features=768, out_features=1280, bias=False), Linear(in_features=768, out_features=1280, bias=False), ModuleList(
  (0): Linear(in_features=1280, out_features=1280, bias=True)
  (1): Dropout(p=0.0, inplace=False)
), Linear(in_features=1280, out_features=1280, bias=True), Dropout(p=0.0, inplace=False), LayerNorm((1280,), eps=1e-05, elementwise_affine=True), FeedForward(
  (net): ModuleList(
    (0): GEGLU(
      (proj): Linear(in_features=1280, out_features=10240, bias=True)
    )
    (1): Dropout(p=0.0, inplace=False)
    (2): Linear(in_features=5120, out_features=1280, bias=True)
  )
), ModuleList(
  (0): GEGLU(
    (proj): Linear(in_features=1280, out_features=10240, bias=True)
  )
  (1): Dropout(p=0.0, inplace=False)
  (2): Linear(in_features=5120, out_features=1280, bias=True)
), GEGLU(
  (proj): Linear(in_features=1280, out_features=10240, bias=True)
), Linear(in_features=1280, out_features=10240, bias=True), Dropout(p=0.0, inplace=False), Linear(in_features=5120, out_features=1280, bias=True), Conv2d(1280, 1280, kernel_size=(1, 1), stride=(1, 1)), ModuleList(
  (0-1): 2 x ResnetBlock2D(
    (norm1): GroupNorm(32, 1280, eps=1e-05, affine=True)
    (conv1): Conv2d(1280, 1280, kernel_size=(3, 3), stride=(1, 1), padding=(1, 1))
    (time_emb_proj): Linear(in_features=1280, out_features=1280, bias=True)
    (norm2): GroupNorm(32, 1280, eps=1e-05, affine=True)
    (dropout): Dropout(p=0.0, inplace=False)
    (conv2): Conv2d(1280, 1280, kernel_size=(3, 3), stride=(1, 1), padding=(1, 1))
    (nonlinearity): SiLU()
  )
), ResnetBlock2D(
  (norm1): GroupNorm(32, 1280, eps=1e-05, affine=True)
  (conv1): Conv2d(1280, 1280, kernel_size=(3, 3), stride=(1, 1), padding=(1, 1))
  (time_emb_proj): Linear(in_features=1280, out_features=1280, bias=True)
  (norm2): GroupNorm(32, 1280, eps=1e-05, affine=True)
  (dropout): Dropout(p=0.0, inplace=False)
  (conv2): Conv2d(1280, 1280, kernel_size=(3, 3), stride=(1, 1), padding=(1, 1))
  (nonlinearity): SiLU()
), GroupNorm(32, 1280, eps=1e-05, affine=True), Conv2d(1280, 1280, kernel_size=(3, 3), stride=(1, 1), padding=(1, 1)), Linear(in_features=1280, out_features=1280, bias=True), GroupNorm(32, 1280, eps=1e-05, affine=True), Dropout(p=0.0, inplace=False), Conv2d(1280, 1280, kernel_size=(3, 3), stride=(1, 1), padding=(1, 1)), SiLU(), ResnetBlock2D(
  (norm1): GroupNorm(32, 1280, eps=1e-05, affine=True)
  (conv1): Conv2d(1280, 1280, kernel_size=(3, 3), stride=(1, 1), padding=(1, 1))
  (time_emb_proj): Linear(in_features=1280, out_features=1280, bias=True)
  (norm2): GroupNorm(32, 1280, eps=1e-05, affine=True)
  (dropout): Dropout(p=0.0, inplace=False)
  (conv2): Conv2d(1280, 1280, kernel_size=(3, 3), stride=(1, 1), padding=(1, 1))
  (nonlinearity): SiLU()
), GroupNorm(32, 1280, eps=1e-05, affine=True), Conv2d(1280, 1280, kernel_size=(3, 3), stride=(1, 1), padding=(1, 1)), Linear(in_features=1280, out_features=1280, bias=True), GroupNorm(32, 1280, eps=1e-05, affine=True), Dropout(p=0.0, inplace=False), Conv2d(1280, 1280, kernel_size=(3, 3), stride=(1, 1), padding=(1, 1)), SiLU(), GroupNorm(32, 320, eps=1e-05, affine=True), SiLU(), Conv2d(320, 4, kernel_size=(3, 3), stride=(1, 1), padding=(1, 1)), StableDiffusionSafetyChecker(
  (vision_model): CLIPVisionModel(
    (vision_model): CLIPVisionTransformer(
      (embeddings): CLIPVisionEmbeddings(
        (patch_embedding): Conv2d(3, 1024, kernel_size=(14, 14), stride=(14, 14), bias=False)
        (position_embedding): Embedding(257, 1024)
      )
      (pre_layrnorm): LayerNorm((1024,), eps=1e-05, elementwise_affine=True)
      (encoder): CLIPEncoder(
        (layers): ModuleList(
          (0-23): 24 x CLIPEncoderLayer(
            (self_attn): CLIPAttention(
              (k_proj): Linear(in_features=1024, out_features=1024, bias=True)
              (v_proj): Linear(in_features=1024, out_features=1024, bias=True)
              (q_proj): Linear(in_features=1024, out_features=1024, bias=True)
              (out_proj): Linear(in_features=1024, out_features=1024, bias=True)
            )
            (layer_norm1): LayerNorm((1024,), eps=1e-05, elementwise_affine=True)
            (mlp): CLIPMLP(
              (activation_fn): QuickGELUActivation()
              (fc1): Linear(in_features=1024, out_features=4096, bias=True)
              (fc2): Linear(in_features=4096, out_features=1024, bias=True)
            )
            (layer_norm2): LayerNorm((1024,), eps=1e-05, elementwise_affine=True)
          )
        )
      )
      (post_layernorm): LayerNorm((1024,), eps=1e-05, elementwise_affine=True)
    )
  )
  (visual_projection): Linear(in_features=1024, out_features=768, bias=False)
), CLIPVisionModel(
  (vision_model): CLIPVisionTransformer(
    (embeddings): CLIPVisionEmbeddings(
      (patch_embedding): Conv2d(3, 1024, kernel_size=(14, 14), stride=(14, 14), bias=False)
      (position_embedding): Embedding(257, 1024)
    )
    (pre_layrnorm): LayerNorm((1024,), eps=1e-05, elementwise_affine=True)
    (encoder): CLIPEncoder(
      (layers): ModuleList(
        (0-23): 24 x CLIPEncoderLayer(
          (self_attn): CLIPAttention(
            (k_proj): Linear(in_features=1024, out_features=1024, bias=True)
            (v_proj): Linear(in_features=1024, out_features=1024, bias=True)
            (q_proj): Linear(in_features=1024, out_features=1024, bias=True)
            (out_proj): Linear(in_features=1024, out_features=1024, bias=True)
          )
          (layer_norm1): LayerNorm((1024,), eps=1e-05, elementwise_affine=True)
          (mlp): CLIPMLP(
            (activation_fn): QuickGELUActivation()
            (fc1): Linear(in_features=1024, out_features=4096, bias=True)
            (fc2): Linear(in_features=4096, out_features=1024, bias=True)
          )
          (layer_norm2): LayerNorm((1024,), eps=1e-05, elementwise_affine=True)
        )
      )
    )
    (post_layernorm): LayerNorm((1024,), eps=1e-05, elementwise_affine=True)
  )
), CLIPVisionTransformer(
  (embeddings): CLIPVisionEmbeddings(
    (patch_embedding): Conv2d(3, 1024, kernel_size=(14, 14), stride=(14, 14), bias=False)
    (position_embedding): Embedding(257, 1024)
  )
  (pre_layrnorm): LayerNorm((1024,), eps=1e-05, elementwise_affine=True)
  (encoder): CLIPEncoder(
    (layers): ModuleList(
      (0-23): 24 x CLIPEncoderLayer(
        (self_attn): CLIPAttention(
          (k_proj): Linear(in_features=1024, out_features=1024, bias=True)
          (v_proj): Linear(in_features=1024, out_features=1024, bias=True)
          (q_proj): Linear(in_features=1024, out_features=1024, bias=True)
          (out_proj): Linear(in_features=1024, out_features=1024, bias=True)
        )
        (layer_norm1): LayerNorm((1024,), eps=1e-05, elementwise_affine=True)
        (mlp): CLIPMLP(
          (activation_fn): QuickGELUActivation()
          (fc1): Linear(in_features=1024, out_features=4096, bias=True)
          (fc2): Linear(in_features=4096, out_features=1024, bias=True)
        )
        (layer_norm2): LayerNorm((1024,), eps=1e-05, elementwise_affine=True)
      )
    )
  )
  (post_layernorm): LayerNorm((1024,), eps=1e-05, elementwise_affine=True)
), CLIPVisionEmbeddings(
  (patch_embedding): Conv2d(3, 1024, kernel_size=(14, 14), stride=(14, 14), bias=False)
  (position_embedding): Embedding(257, 1024)
), Conv2d(3, 1024, kernel_size=(14, 14), stride=(14, 14), bias=False), Embedding(257, 1024), LayerNorm((1024,), eps=1e-05, elementwise_affine=True), CLIPEncoder(
  (layers): ModuleList(
    (0-23): 24 x CLIPEncoderLayer(
      (self_attn): CLIPAttention(
        (k_proj): Linear(in_features=1024, out_features=1024, bias=True)
        (v_proj): Linear(in_features=1024, out_features=1024, bias=True)
        (q_proj): Linear(in_features=1024, out_features=1024, bias=True)
        (out_proj): Linear(in_features=1024, out_features=1024, bias=True)
      )
      (layer_norm1): LayerNorm((1024,), eps=1e-05, elementwise_affine=True)
      (mlp): CLIPMLP(
        (activation_fn): QuickGELUActivation()
        (fc1): Linear(in_features=1024, out_features=4096, bias=True)
        (fc2): Linear(in_features=4096, out_features=1024, bias=True)
      )
      (layer_norm2): LayerNorm((1024,), eps=1e-05, elementwise_affine=True)
    )
  )
), ModuleList(
  (0-23): 24 x CLIPEncoderLayer(
    (self_attn): CLIPAttention(
      (k_proj): Linear(in_features=1024, out_features=1024, bias=True)
      (v_proj): Linear(in_features=1024, out_features=1024, bias=True)
      (q_proj): Linear(in_features=1024, out_features=1024, bias=True)
      (out_proj): Linear(in_features=1024, out_features=1024, bias=True)
    )
    (layer_norm1): LayerNorm((1024,), eps=1e-05, elementwise_affine=True)
    (mlp): CLIPMLP(
      (activation_fn): QuickGELUActivation()
      (fc1): Linear(in_features=1024, out_features=4096, bias=True)
      (fc2): Linear(in_features=4096, out_features=1024, bias=True)
    )
    (layer_norm2): LayerNorm((1024,), eps=1e-05, elementwise_affine=True)
  )
), CLIPEncoderLayer(
  (self_attn): CLIPAttention(
    (k_proj): Linear(in_features=1024, out_features=1024, bias=True)
    (v_proj): Linear(in_features=1024, out_features=1024, bias=True)
    (q_proj): Linear(in_features=1024, out_features=1024, bias=True)
    (out_proj): Linear(in_features=1024, out_features=1024, bias=True)
  )
  (layer_norm1): LayerNorm((1024,), eps=1e-05, elementwise_affine=True)
  (mlp): CLIPMLP(
    (activation_fn): QuickGELUActivation()
    (fc1): Linear(in_features=1024, out_features=4096, bias=True)
    (fc2): Linear(in_features=4096, out_features=1024, bias=True)
  )
  (layer_norm2): LayerNorm((1024,), eps=1e-05, elementwise_affine=True)
), CLIPAttention(
  (k_proj): Linear(in_features=1024, out_features=1024, bias=True)
  (v_proj): Linear(in_features=1024, out_features=1024, bias=True)
  (q_proj): Linear(in_features=1024, out_features=1024, bias=True)
  (out_proj): Linear(in_features=1024, out_features=1024, bias=True)
), Linear(in_features=1024, out_features=1024, bias=True), Linear(in_features=1024, out_features=1024, bias=True), Linear(in_features=1024, out_features=1024, bias=True), Linear(in_features=1024, out_features=1024, bias=True), LayerNorm((1024,), eps=1e-05, elementwise_affine=True), CLIPMLP(
  (activation_fn): QuickGELUActivation()
  (fc1): Linear(in_features=1024, out_features=4096, bias=True)
  (fc2): Linear(in_features=4096, out_features=1024, bias=True)
), QuickGELUActivation(), Linear(in_features=1024, out_features=4096, bias=True), Linear(in_features=4096, out_features=1024, bias=True), LayerNorm((1024,), eps=1e-05, elementwise_affine=True), CLIPEncoderLayer(
  (self_attn): CLIPAttention(
    (k_proj): Linear(in_features=1024, out_features=1024, bias=True)
    (v_proj): Linear(in_features=1024, out_features=1024, bias=True)
    (q_proj): Linear(in_features=1024, out_features=1024, bias=True)
    (out_proj): Linear(in_features=1024, out_features=1024, bias=True)
  )
  (layer_norm1): LayerNorm((1024,), eps=1e-05, elementwise_affine=True)
  (mlp): CLIPMLP(
    (activation_fn): QuickGELUActivation()
    (fc1): Linear(in_features=1024, out_features=4096, bias=True)
    (fc2): Linear(in_features=4096, out_features=1024, bias=True)
  )
  (layer_norm2): LayerNorm((1024,), eps=1e-05, elementwise_affine=True)
), CLIPAttention(
  (k_proj): Linear(in_features=1024, out_features=1024, bias=True)
  (v_proj): Linear(in_features=1024, out_features=1024, bias=True)
  (q_proj): Linear(in_features=1024, out_features=1024, bias=True)
  (out_proj): Linear(in_features=1024, out_features=1024, bias=True)
), Linear(in_features=1024, out_features=1024, bias=True), Linear(in_features=1024, out_features=1024, bias=True), Linear(in_features=1024, out_features=1024, bias=True), Linear(in_features=1024, out_features=1024, bias=True), LayerNorm((1024,), eps=1e-05, elementwise_affine=True), CLIPMLP(
  (activation_fn): QuickGELUActivation()
  (fc1): Linear(in_features=1024, out_features=4096, bias=True)
  (fc2): Linear(in_features=4096, out_features=1024, bias=True)
), QuickGELUActivation(), Linear(in_features=1024, out_features=4096, bias=True), Linear(in_features=4096, out_features=1024, bias=True), LayerNorm((1024,), eps=1e-05, elementwise_affine=True), CLIPEncoderLayer(
  (self_attn): CLIPAttention(
    (k_proj): Linear(in_features=1024, out_features=1024, bias=True)
    (v_proj): Linear(in_features=1024, out_features=1024, bias=True)
    (q_proj): Linear(in_features=1024, out_features=1024, bias=True)
    (out_proj): Linear(in_features=1024, out_features=1024, bias=True)
  )
  (layer_norm1): LayerNorm((1024,), eps=1e-05, elementwise_affine=True)
  (mlp): CLIPMLP(
    (activation_fn): QuickGELUActivation()
    (fc1): Linear(in_features=1024, out_features=4096, bias=True)
    (fc2): Linear(in_features=4096, out_features=1024, bias=True)
  )
  (layer_norm2): LayerNorm((1024,), eps=1e-05, elementwise_affine=True)
), CLIPAttention(
  (k_proj): Linear(in_features=1024, out_features=1024, bias=True)
  (v_proj): Linear(in_features=1024, out_features=1024, bias=True)
  (q_proj): Linear(in_features=1024, out_features=1024, bias=True)
  (out_proj): Linear(in_features=1024, out_features=1024, bias=True)
), Linear(in_features=1024, out_features=1024, bias=True), Linear(in_features=1024, out_features=1024, bias=True), Linear(in_features=1024, out_features=1024, bias=True), Linear(in_features=1024, out_features=1024, bias=True), LayerNorm((1024,), eps=1e-05, elementwise_affine=True), CLIPMLP(
  (activation_fn): QuickGELUActivation()
  (fc1): Linear(in_features=1024, out_features=4096, bias=True)
  (fc2): Linear(in_features=4096, out_features=1024, bias=True)
), QuickGELUActivation(), Linear(in_features=1024, out_features=4096, bias=True), Linear(in_features=4096, out_features=1024, bias=True), LayerNorm((1024,), eps=1e-05, elementwise_affine=True), CLIPEncoderLayer(
  (self_attn): CLIPAttention(
    (k_proj): Linear(in_features=1024, out_features=1024, bias=True)
    (v_proj): Linear(in_features=1024, out_features=1024, bias=True)
    (q_proj): Linear(in_features=1024, out_features=1024, bias=True)
    (out_proj): Linear(in_features=1024, out_features=1024, bias=True)
  )
  (layer_norm1): LayerNorm((1024,), eps=1e-05, elementwise_affine=True)
  (mlp): CLIPMLP(
    (activation_fn): QuickGELUActivation()
    (fc1): Linear(in_features=1024, out_features=4096, bias=True)
    (fc2): Linear(in_features=4096, out_features=1024, bias=True)
  )
  (layer_norm2): LayerNorm((1024,), eps=1e-05, elementwise_affine=True)
), CLIPAttention(
  (k_proj): Linear(in_features=1024, out_features=1024, bias=True)
  (v_proj): Linear(in_features=1024, out_features=1024, bias=True)
  (q_proj): Linear(in_features=1024, out_features=1024, bias=True)
  (out_proj): Linear(in_features=1024, out_features=1024, bias=True)
), Linear(in_features=1024, out_features=1024, bias=True), Linear(in_features=1024, out_features=1024, bias=True), Linear(in_features=1024, out_features=1024, bias=True), Linear(in_features=1024, out_features=1024, bias=True), LayerNorm((1024,), eps=1e-05, elementwise_affine=True), CLIPMLP(
  (activation_fn): QuickGELUActivation()
  (fc1): Linear(in_features=1024, out_features=4096, bias=True)
  (fc2): Linear(in_features=4096, out_features=1024, bias=True)
), QuickGELUActivation(), Linear(in_features=1024, out_features=4096, bias=True), Linear(in_features=4096, out_features=1024, bias=True), LayerNorm((1024,), eps=1e-05, elementwise_affine=True), CLIPEncoderLayer(
  (self_attn): CLIPAttention(
    (k_proj): Linear(in_features=1024, out_features=1024, bias=True)
    (v_proj): Linear(in_features=1024, out_features=1024, bias=True)
    (q_proj): Linear(in_features=1024, out_features=1024, bias=True)
    (out_proj): Linear(in_features=1024, out_features=1024, bias=True)
  )
  (layer_norm1): LayerNorm((1024,), eps=1e-05, elementwise_affine=True)
  (mlp): CLIPMLP(
    (activation_fn): QuickGELUActivation()
    (fc1): Linear(in_features=1024, out_features=4096, bias=True)
    (fc2): Linear(in_features=4096, out_features=1024, bias=True)
  )
  (layer_norm2): LayerNorm((1024,), eps=1e-05, elementwise_affine=True)
), CLIPAttention(
  (k_proj): Linear(in_features=1024, out_features=1024, bias=True)
  (v_proj): Linear(in_features=1024, out_features=1024, bias=True)
  (q_proj): Linear(in_features=1024, out_features=1024, bias=True)
  (out_proj): Linear(in_features=1024, out_features=1024, bias=True)
), Linear(in_features=1024, out_features=1024, bias=True), Linear(in_features=1024, out_features=1024, bias=True), Linear(in_features=1024, out_features=1024, bias=True), Linear(in_features=1024, out_features=1024, bias=True), LayerNorm((1024,), eps=1e-05, elementwise_affine=True), CLIPMLP(
  (activation_fn): QuickGELUActivation()
  (fc1): Linear(in_features=1024, out_features=4096, bias=True)
  (fc2): Linear(in_features=4096, out_features=1024, bias=True)
), QuickGELUActivation(), Linear(in_features=1024, out_features=4096, bias=True), Linear(in_features=4096, out_features=1024, bias=True), LayerNorm((1024,), eps=1e-05, elementwise_affine=True), CLIPEncoderLayer(
  (self_attn): CLIPAttention(
    (k_proj): Linear(in_features=1024, out_features=1024, bias=True)
    (v_proj): Linear(in_features=1024, out_features=1024, bias=True)
    (q_proj): Linear(in_features=1024, out_features=1024, bias=True)
    (out_proj): Linear(in_features=1024, out_features=1024, bias=True)
  )
  (layer_norm1): LayerNorm((1024,), eps=1e-05, elementwise_affine=True)
  (mlp): CLIPMLP(
    (activation_fn): QuickGELUActivation()
    (fc1): Linear(in_features=1024, out_features=4096, bias=True)
    (fc2): Linear(in_features=4096, out_features=1024, bias=True)
  )
  (layer_norm2): LayerNorm((1024,), eps=1e-05, elementwise_affine=True)
), CLIPAttention(
  (k_proj): Linear(in_features=1024, out_features=1024, bias=True)
  (v_proj): Linear(in_features=1024, out_features=1024, bias=True)
  (q_proj): Linear(in_features=1024, out_features=1024, bias=True)
  (out_proj): Linear(in_features=1024, out_features=1024, bias=True)
), Linear(in_features=1024, out_features=1024, bias=True), Linear(in_features=1024, out_features=1024, bias=True), Linear(in_features=1024, out_features=1024, bias=True), Linear(in_features=1024, out_features=1024, bias=True), LayerNorm((1024,), eps=1e-05, elementwise_affine=True), CLIPMLP(
  (activation_fn): QuickGELUActivation()
  (fc1): Linear(in_features=1024, out_features=4096, bias=True)
  (fc2): Linear(in_features=4096, out_features=1024, bias=True)
), QuickGELUActivation(), Linear(in_features=1024, out_features=4096, bias=True), Linear(in_features=4096, out_features=1024, bias=True), LayerNorm((1024,), eps=1e-05, elementwise_affine=True), CLIPEncoderLayer(
  (self_attn): CLIPAttention(
    (k_proj): Linear(in_features=1024, out_features=1024, bias=True)
    (v_proj): Linear(in_features=1024, out_features=1024, bias=True)
    (q_proj): Linear(in_features=1024, out_features=1024, bias=True)
    (out_proj): Linear(in_features=1024, out_features=1024, bias=True)
  )
  (layer_norm1): LayerNorm((1024,), eps=1e-05, elementwise_affine=True)
  (mlp): CLIPMLP(
    (activation_fn): QuickGELUActivation()
    (fc1): Linear(in_features=1024, out_features=4096, bias=True)
    (fc2): Linear(in_features=4096, out_features=1024, bias=True)
  )
  (layer_norm2): LayerNorm((1024,), eps=1e-05, elementwise_affine=True)
), CLIPAttention(
  (k_proj): Linear(in_features=1024, out_features=1024, bias=True)
  (v_proj): Linear(in_features=1024, out_features=1024, bias=True)
  (q_proj): Linear(in_features=1024, out_features=1024, bias=True)
  (out_proj): Linear(in_features=1024, out_features=1024, bias=True)
), Linear(in_features=1024, out_features=1024, bias=True), Linear(in_features=1024, out_features=1024, bias=True), Linear(in_features=1024, out_features=1024, bias=True), Linear(in_features=1024, out_features=1024, bias=True), LayerNorm((1024,), eps=1e-05, elementwise_affine=True), CLIPMLP(
  (activation_fn): QuickGELUActivation()
  (fc1): Linear(in_features=1024, out_features=4096, bias=True)
  (fc2): Linear(in_features=4096, out_features=1024, bias=True)
), QuickGELUActivation(), Linear(in_features=1024, out_features=4096, bias=True), Linear(in_features=4096, out_features=1024, bias=True), LayerNorm((1024,), eps=1e-05, elementwise_affine=True), CLIPEncoderLayer(
  (self_attn): CLIPAttention(
    (k_proj): Linear(in_features=1024, out_features=1024, bias=True)
    (v_proj): Linear(in_features=1024, out_features=1024, bias=True)
    (q_proj): Linear(in_features=1024, out_features=1024, bias=True)
    (out_proj): Linear(in_features=1024, out_features=1024, bias=True)
  )
  (layer_norm1): LayerNorm((1024,), eps=1e-05, elementwise_affine=True)
  (mlp): CLIPMLP(
    (activation_fn): QuickGELUActivation()
    (fc1): Linear(in_features=1024, out_features=4096, bias=True)
    (fc2): Linear(in_features=4096, out_features=1024, bias=True)
  )
  (layer_norm2): LayerNorm((1024,), eps=1e-05, elementwise_affine=True)
), CLIPAttention(
  (k_proj): Linear(in_features=1024, out_features=1024, bias=True)
  (v_proj): Linear(in_features=1024, out_features=1024, bias=True)
  (q_proj): Linear(in_features=1024, out_features=1024, bias=True)
  (out_proj): Linear(in_features=1024, out_features=1024, bias=True)
), Linear(in_features=1024, out_features=1024, bias=True), Linear(in_features=1024, out_features=1024, bias=True), Linear(in_features=1024, out_features=1024, bias=True), Linear(in_features=1024, out_features=1024, bias=True), LayerNorm((1024,), eps=1e-05, elementwise_affine=True), CLIPMLP(
  (activation_fn): QuickGELUActivation()
  (fc1): Linear(in_features=1024, out_features=4096, bias=True)
  (fc2): Linear(in_features=4096, out_features=1024, bias=True)
), QuickGELUActivation(), Linear(in_features=1024, out_features=4096, bias=True), Linear(in_features=4096, out_features=1024, bias=True), LayerNorm((1024,), eps=1e-05, elementwise_affine=True), CLIPEncoderLayer(
  (self_attn): CLIPAttention(
    (k_proj): Linear(in_features=1024, out_features=1024, bias=True)
    (v_proj): Linear(in_features=1024, out_features=1024, bias=True)
    (q_proj): Linear(in_features=1024, out_features=1024, bias=True)
    (out_proj): Linear(in_features=1024, out_features=1024, bias=True)
  )
  (layer_norm1): LayerNorm((1024,), eps=1e-05, elementwise_affine=True)
  (mlp): CLIPMLP(
    (activation_fn): QuickGELUActivation()
    (fc1): Linear(in_features=1024, out_features=4096, bias=True)
    (fc2): Linear(in_features=4096, out_features=1024, bias=True)
  )
  (layer_norm2): LayerNorm((1024,), eps=1e-05, elementwise_affine=True)
), CLIPAttention(
  (k_proj): Linear(in_features=1024, out_features=1024, bias=True)
  (v_proj): Linear(in_features=1024, out_features=1024, bias=True)
  (q_proj): Linear(in_features=1024, out_features=1024, bias=True)
  (out_proj): Linear(in_features=1024, out_features=1024, bias=True)
), Linear(in_features=1024, out_features=1024, bias=True), Linear(in_features=1024, out_features=1024, bias=True), Linear(in_features=1024, out_features=1024, bias=True), Linear(in_features=1024, out_features=1024, bias=True), LayerNorm((1024,), eps=1e-05, elementwise_affine=True), CLIPMLP(
  (activation_fn): QuickGELUActivation()
  (fc1): Linear(in_features=1024, out_features=4096, bias=True)
  (fc2): Linear(in_features=4096, out_features=1024, bias=True)
), QuickGELUActivation(), Linear(in_features=1024, out_features=4096, bias=True), Linear(in_features=4096, out_features=1024, bias=True), LayerNorm((1024,), eps=1e-05, elementwise_affine=True), CLIPEncoderLayer(
  (self_attn): CLIPAttention(
    (k_proj): Linear(in_features=1024, out_features=1024, bias=True)
    (v_proj): Linear(in_features=1024, out_features=1024, bias=True)
    (q_proj): Linear(in_features=1024, out_features=1024, bias=True)
    (out_proj): Linear(in_features=1024, out_features=1024, bias=True)
  )
  (layer_norm1): LayerNorm((1024,), eps=1e-05, elementwise_affine=True)
  (mlp): CLIPMLP(
    (activation_fn): QuickGELUActivation()
    (fc1): Linear(in_features=1024, out_features=4096, bias=True)
    (fc2): Linear(in_features=4096, out_features=1024, bias=True)
  )
  (layer_norm2): LayerNorm((1024,), eps=1e-05, elementwise_affine=True)
), CLIPAttention(
  (k_proj): Linear(in_features=1024, out_features=1024, bias=True)
  (v_proj): Linear(in_features=1024, out_features=1024, bias=True)
  (q_proj): Linear(in_features=1024, out_features=1024, bias=True)
  (out_proj): Linear(in_features=1024, out_features=1024, bias=True)
), Linear(in_features=1024, out_features=1024, bias=True), Linear(in_features=1024, out_features=1024, bias=True), Linear(in_features=1024, out_features=1024, bias=True), Linear(in_features=1024, out_features=1024, bias=True), LayerNorm((1024,), eps=1e-05, elementwise_affine=True), CLIPMLP(
  (activation_fn): QuickGELUActivation()
  (fc1): Linear(in_features=1024, out_features=4096, bias=True)
  (fc2): Linear(in_features=4096, out_features=1024, bias=True)
), QuickGELUActivation(), Linear(in_features=1024, out_features=4096, bias=True), Linear(in_features=4096, out_features=1024, bias=True), LayerNorm((1024,), eps=1e-05, elementwise_affine=True), CLIPEncoderLayer(
  (self_attn): CLIPAttention(
    (k_proj): Linear(in_features=1024, out_features=1024, bias=True)
    (v_proj): Linear(in_features=1024, out_features=1024, bias=True)
    (q_proj): Linear(in_features=1024, out_features=1024, bias=True)
    (out_proj): Linear(in_features=1024, out_features=1024, bias=True)
  )
  (layer_norm1): LayerNorm((1024,), eps=1e-05, elementwise_affine=True)
  (mlp): CLIPMLP(
    (activation_fn): QuickGELUActivation()
    (fc1): Linear(in_features=1024, out_features=4096, bias=True)
    (fc2): Linear(in_features=4096, out_features=1024, bias=True)
  )
  (layer_norm2): LayerNorm((1024,), eps=1e-05, elementwise_affine=True)
), CLIPAttention(
  (k_proj): Linear(in_features=1024, out_features=1024, bias=True)
  (v_proj): Linear(in_features=1024, out_features=1024, bias=True)
  (q_proj): Linear(in_features=1024, out_features=1024, bias=True)
  (out_proj): Linear(in_features=1024, out_features=1024, bias=True)
), Linear(in_features=1024, out_features=1024, bias=True), Linear(in_features=1024, out_features=1024, bias=True), Linear(in_features=1024, out_features=1024, bias=True), Linear(in_features=1024, out_features=1024, bias=True), LayerNorm((1024,), eps=1e-05, elementwise_affine=True), CLIPMLP(
  (activation_fn): QuickGELUActivation()
  (fc1): Linear(in_features=1024, out_features=4096, bias=True)
  (fc2): Linear(in_features=4096, out_features=1024, bias=True)
), QuickGELUActivation(), Linear(in_features=1024, out_features=4096, bias=True), Linear(in_features=4096, out_features=1024, bias=True), LayerNorm((1024,), eps=1e-05, elementwise_affine=True), CLIPEncoderLayer(
  (self_attn): CLIPAttention(
    (k_proj): Linear(in_features=1024, out_features=1024, bias=True)
    (v_proj): Linear(in_features=1024, out_features=1024, bias=True)
    (q_proj): Linear(in_features=1024, out_features=1024, bias=True)
    (out_proj): Linear(in_features=1024, out_features=1024, bias=True)
  )
  (layer_norm1): LayerNorm((1024,), eps=1e-05, elementwise_affine=True)
  (mlp): CLIPMLP(
    (activation_fn): QuickGELUActivation()
    (fc1): Linear(in_features=1024, out_features=4096, bias=True)
    (fc2): Linear(in_features=4096, out_features=1024, bias=True)
  )
  (layer_norm2): LayerNorm((1024,), eps=1e-05, elementwise_affine=True)
), CLIPAttention(
  (k_proj): Linear(in_features=1024, out_features=1024, bias=True)
  (v_proj): Linear(in_features=1024, out_features=1024, bias=True)
  (q_proj): Linear(in_features=1024, out_features=1024, bias=True)
  (out_proj): Linear(in_features=1024, out_features=1024, bias=True)
), Linear(in_features=1024, out_features=1024, bias=True), Linear(in_features=1024, out_features=1024, bias=True), Linear(in_features=1024, out_features=1024, bias=True), Linear(in_features=1024, out_features=1024, bias=True), LayerNorm((1024,), eps=1e-05, elementwise_affine=True), CLIPMLP(
  (activation_fn): QuickGELUActivation()
  (fc1): Linear(in_features=1024, out_features=4096, bias=True)
  (fc2): Linear(in_features=4096, out_features=1024, bias=True)
), QuickGELUActivation(), Linear(in_features=1024, out_features=4096, bias=True), Linear(in_features=4096, out_features=1024, bias=True), LayerNorm((1024,), eps=1e-05, elementwise_affine=True), CLIPEncoderLayer(
  (self_attn): CLIPAttention(
    (k_proj): Linear(in_features=1024, out_features=1024, bias=True)
    (v_proj): Linear(in_features=1024, out_features=1024, bias=True)
    (q_proj): Linear(in_features=1024, out_features=1024, bias=True)
    (out_proj): Linear(in_features=1024, out_features=1024, bias=True)
  )
  (layer_norm1): LayerNorm((1024,), eps=1e-05, elementwise_affine=True)
  (mlp): CLIPMLP(
    (activation_fn): QuickGELUActivation()
    (fc1): Linear(in_features=1024, out_features=4096, bias=True)
    (fc2): Linear(in_features=4096, out_features=1024, bias=True)
  )
  (layer_norm2): LayerNorm((1024,), eps=1e-05, elementwise_affine=True)
), CLIPAttention(
  (k_proj): Linear(in_features=1024, out_features=1024, bias=True)
  (v_proj): Linear(in_features=1024, out_features=1024, bias=True)
  (q_proj): Linear(in_features=1024, out_features=1024, bias=True)
  (out_proj): Linear(in_features=1024, out_features=1024, bias=True)
), Linear(in_features=1024, out_features=1024, bias=True), Linear(in_features=1024, out_features=1024, bias=True), Linear(in_features=1024, out_features=1024, bias=True), Linear(in_features=1024, out_features=1024, bias=True), LayerNorm((1024,), eps=1e-05, elementwise_affine=True), CLIPMLP(
  (activation_fn): QuickGELUActivation()
  (fc1): Linear(in_features=1024, out_features=4096, bias=True)
  (fc2): Linear(in_features=4096, out_features=1024, bias=True)
), QuickGELUActivation(), Linear(in_features=1024, out_features=4096, bias=True), Linear(in_features=4096, out_features=1024, bias=True), LayerNorm((1024,), eps=1e-05, elementwise_affine=True), CLIPEncoderLayer(
  (self_attn): CLIPAttention(
    (k_proj): Linear(in_features=1024, out_features=1024, bias=True)
    (v_proj): Linear(in_features=1024, out_features=1024, bias=True)
    (q_proj): Linear(in_features=1024, out_features=1024, bias=True)
    (out_proj): Linear(in_features=1024, out_features=1024, bias=True)
  )
  (layer_norm1): LayerNorm((1024,), eps=1e-05, elementwise_affine=True)
  (mlp): CLIPMLP(
    (activation_fn): QuickGELUActivation()
    (fc1): Linear(in_features=1024, out_features=4096, bias=True)
    (fc2): Linear(in_features=4096, out_features=1024, bias=True)
  )
  (layer_norm2): LayerNorm((1024,), eps=1e-05, elementwise_affine=True)
), CLIPAttention(
  (k_proj): Linear(in_features=1024, out_features=1024, bias=True)
  (v_proj): Linear(in_features=1024, out_features=1024, bias=True)
  (q_proj): Linear(in_features=1024, out_features=1024, bias=True)
  (out_proj): Linear(in_features=1024, out_features=1024, bias=True)
), Linear(in_features=1024, out_features=1024, bias=True), Linear(in_features=1024, out_features=1024, bias=True), Linear(in_features=1024, out_features=1024, bias=True), Linear(in_features=1024, out_features=1024, bias=True), LayerNorm((1024,), eps=1e-05, elementwise_affine=True), CLIPMLP(
  (activation_fn): QuickGELUActivation()
  (fc1): Linear(in_features=1024, out_features=4096, bias=True)
  (fc2): Linear(in_features=4096, out_features=1024, bias=True)
), QuickGELUActivation(), Linear(in_features=1024, out_features=4096, bias=True), Linear(in_features=4096, out_features=1024, bias=True), LayerNorm((1024,), eps=1e-05, elementwise_affine=True), CLIPEncoderLayer(
  (self_attn): CLIPAttention(
    (k_proj): Linear(in_features=1024, out_features=1024, bias=True)
    (v_proj): Linear(in_features=1024, out_features=1024, bias=True)
    (q_proj): Linear(in_features=1024, out_features=1024, bias=True)
    (out_proj): Linear(in_features=1024, out_features=1024, bias=True)
  )
  (layer_norm1): LayerNorm((1024,), eps=1e-05, elementwise_affine=True)
  (mlp): CLIPMLP(
    (activation_fn): QuickGELUActivation()
    (fc1): Linear(in_features=1024, out_features=4096, bias=True)
    (fc2): Linear(in_features=4096, out_features=1024, bias=True)
  )
  (layer_norm2): LayerNorm((1024,), eps=1e-05, elementwise_affine=True)
), CLIPAttention(
  (k_proj): Linear(in_features=1024, out_features=1024, bias=True)
  (v_proj): Linear(in_features=1024, out_features=1024, bias=True)
  (q_proj): Linear(in_features=1024, out_features=1024, bias=True)
  (out_proj): Linear(in_features=1024, out_features=1024, bias=True)
), Linear(in_features=1024, out_features=1024, bias=True), Linear(in_features=1024, out_features=1024, bias=True), Linear(in_features=1024, out_features=1024, bias=True), Linear(in_features=1024, out_features=1024, bias=True), LayerNorm((1024,), eps=1e-05, elementwise_affine=True), CLIPMLP(
  (activation_fn): QuickGELUActivation()
  (fc1): Linear(in_features=1024, out_features=4096, bias=True)
  (fc2): Linear(in_features=4096, out_features=1024, bias=True)
), QuickGELUActivation(), Linear(in_features=1024, out_features=4096, bias=True), Linear(in_features=4096, out_features=1024, bias=True), LayerNorm((1024,), eps=1e-05, elementwise_affine=True), CLIPEncoderLayer(
  (self_attn): CLIPAttention(
    (k_proj): Linear(in_features=1024, out_features=1024, bias=True)
    (v_proj): Linear(in_features=1024, out_features=1024, bias=True)
    (q_proj): Linear(in_features=1024, out_features=1024, bias=True)
    (out_proj): Linear(in_features=1024, out_features=1024, bias=True)
  )
  (layer_norm1): LayerNorm((1024,), eps=1e-05, elementwise_affine=True)
  (mlp): CLIPMLP(
    (activation_fn): QuickGELUActivation()
    (fc1): Linear(in_features=1024, out_features=4096, bias=True)
    (fc2): Linear(in_features=4096, out_features=1024, bias=True)
  )
  (layer_norm2): LayerNorm((1024,), eps=1e-05, elementwise_affine=True)
), CLIPAttention(
  (k_proj): Linear(in_features=1024, out_features=1024, bias=True)
  (v_proj): Linear(in_features=1024, out_features=1024, bias=True)
  (q_proj): Linear(in_features=1024, out_features=1024, bias=True)
  (out_proj): Linear(in_features=1024, out_features=1024, bias=True)
), Linear(in_features=1024, out_features=1024, bias=True), Linear(in_features=1024, out_features=1024, bias=True), Linear(in_features=1024, out_features=1024, bias=True), Linear(in_features=1024, out_features=1024, bias=True), LayerNorm((1024,), eps=1e-05, elementwise_affine=True), CLIPMLP(
  (activation_fn): QuickGELUActivation()
  (fc1): Linear(in_features=1024, out_features=4096, bias=True)
  (fc2): Linear(in_features=4096, out_features=1024, bias=True)
), QuickGELUActivation(), Linear(in_features=1024, out_features=4096, bias=True), Linear(in_features=4096, out_features=1024, bias=True), LayerNorm((1024,), eps=1e-05, elementwise_affine=True), CLIPEncoderLayer(
  (self_attn): CLIPAttention(
    (k_proj): Linear(in_features=1024, out_features=1024, bias=True)
    (v_proj): Linear(in_features=1024, out_features=1024, bias=True)
    (q_proj): Linear(in_features=1024, out_features=1024, bias=True)
    (out_proj): Linear(in_features=1024, out_features=1024, bias=True)
  )
  (layer_norm1): LayerNorm((1024,), eps=1e-05, elementwise_affine=True)
  (mlp): CLIPMLP(
    (activation_fn): QuickGELUActivation()
    (fc1): Linear(in_features=1024, out_features=4096, bias=True)
    (fc2): Linear(in_features=4096, out_features=1024, bias=True)
  )
  (layer_norm2): LayerNorm((1024,), eps=1e-05, elementwise_affine=True)
), CLIPAttention(
  (k_proj): Linear(in_features=1024, out_features=1024, bias=True)
  (v_proj): Linear(in_features=1024, out_features=1024, bias=True)
  (q_proj): Linear(in_features=1024, out_features=1024, bias=True)
  (out_proj): Linear(in_features=1024, out_features=1024, bias=True)
), Linear(in_features=1024, out_features=1024, bias=True), Linear(in_features=1024, out_features=1024, bias=True), Linear(in_features=1024, out_features=1024, bias=True), Linear(in_features=1024, out_features=1024, bias=True), LayerNorm((1024,), eps=1e-05, elementwise_affine=True), CLIPMLP(
  (activation_fn): QuickGELUActivation()
  (fc1): Linear(in_features=1024, out_features=4096, bias=True)
  (fc2): Linear(in_features=4096, out_features=1024, bias=True)
), QuickGELUActivation(), Linear(in_features=1024, out_features=4096, bias=True), Linear(in_features=4096, out_features=1024, bias=True), LayerNorm((1024,), eps=1e-05, elementwise_affine=True), CLIPEncoderLayer(
  (self_attn): CLIPAttention(
    (k_proj): Linear(in_features=1024, out_features=1024, bias=True)
    (v_proj): Linear(in_features=1024, out_features=1024, bias=True)
    (q_proj): Linear(in_features=1024, out_features=1024, bias=True)
    (out_proj): Linear(in_features=1024, out_features=1024, bias=True)
  )
  (layer_norm1): LayerNorm((1024,), eps=1e-05, elementwise_affine=True)
  (mlp): CLIPMLP(
    (activation_fn): QuickGELUActivation()
    (fc1): Linear(in_features=1024, out_features=4096, bias=True)
    (fc2): Linear(in_features=4096, out_features=1024, bias=True)
  )
  (layer_norm2): LayerNorm((1024,), eps=1e-05, elementwise_affine=True)
), CLIPAttention(
  (k_proj): Linear(in_features=1024, out_features=1024, bias=True)
  (v_proj): Linear(in_features=1024, out_features=1024, bias=True)
  (q_proj): Linear(in_features=1024, out_features=1024, bias=True)
  (out_proj): Linear(in_features=1024, out_features=1024, bias=True)
), Linear(in_features=1024, out_features=1024, bias=True), Linear(in_features=1024, out_features=1024, bias=True), Linear(in_features=1024, out_features=1024, bias=True), Linear(in_features=1024, out_features=1024, bias=True), LayerNorm((1024,), eps=1e-05, elementwise_affine=True), CLIPMLP(
  (activation_fn): QuickGELUActivation()
  (fc1): Linear(in_features=1024, out_features=4096, bias=True)
  (fc2): Linear(in_features=4096, out_features=1024, bias=True)
), QuickGELUActivation(), Linear(in_features=1024, out_features=4096, bias=True), Linear(in_features=4096, out_features=1024, bias=True), LayerNorm((1024,), eps=1e-05, elementwise_affine=True), CLIPEncoderLayer(
  (self_attn): CLIPAttention(
    (k_proj): Linear(in_features=1024, out_features=1024, bias=True)
    (v_proj): Linear(in_features=1024, out_features=1024, bias=True)
    (q_proj): Linear(in_features=1024, out_features=1024, bias=True)
    (out_proj): Linear(in_features=1024, out_features=1024, bias=True)
  )
  (layer_norm1): LayerNorm((1024,), eps=1e-05, elementwise_affine=True)
  (mlp): CLIPMLP(
    (activation_fn): QuickGELUActivation()
    (fc1): Linear(in_features=1024, out_features=4096, bias=True)
    (fc2): Linear(in_features=4096, out_features=1024, bias=True)
  )
  (layer_norm2): LayerNorm((1024,), eps=1e-05, elementwise_affine=True)
), CLIPAttention(
  (k_proj): Linear(in_features=1024, out_features=1024, bias=True)
  (v_proj): Linear(in_features=1024, out_features=1024, bias=True)
  (q_proj): Linear(in_features=1024, out_features=1024, bias=True)
  (out_proj): Linear(in_features=1024, out_features=1024, bias=True)
), Linear(in_features=1024, out_features=1024, bias=True), Linear(in_features=1024, out_features=1024, bias=True), Linear(in_features=1024, out_features=1024, bias=True), Linear(in_features=1024, out_features=1024, bias=True), LayerNorm((1024,), eps=1e-05, elementwise_affine=True), CLIPMLP(
  (activation_fn): QuickGELUActivation()
  (fc1): Linear(in_features=1024, out_features=4096, bias=True)
  (fc2): Linear(in_features=4096, out_features=1024, bias=True)
), QuickGELUActivation(), Linear(in_features=1024, out_features=4096, bias=True), Linear(in_features=4096, out_features=1024, bias=True), LayerNorm((1024,), eps=1e-05, elementwise_affine=True), CLIPEncoderLayer(
  (self_attn): CLIPAttention(
    (k_proj): Linear(in_features=1024, out_features=1024, bias=True)
    (v_proj): Linear(in_features=1024, out_features=1024, bias=True)
    (q_proj): Linear(in_features=1024, out_features=1024, bias=True)
    (out_proj): Linear(in_features=1024, out_features=1024, bias=True)
  )
  (layer_norm1): LayerNorm((1024,), eps=1e-05, elementwise_affine=True)
  (mlp): CLIPMLP(
    (activation_fn): QuickGELUActivation()
    (fc1): Linear(in_features=1024, out_features=4096, bias=True)
    (fc2): Linear(in_features=4096, out_features=1024, bias=True)
  )
  (layer_norm2): LayerNorm((1024,), eps=1e-05, elementwise_affine=True)
), CLIPAttention(
  (k_proj): Linear(in_features=1024, out_features=1024, bias=True)
  (v_proj): Linear(in_features=1024, out_features=1024, bias=True)
  (q_proj): Linear(in_features=1024, out_features=1024, bias=True)
  (out_proj): Linear(in_features=1024, out_features=1024, bias=True)
), Linear(in_features=1024, out_features=1024, bias=True), Linear(in_features=1024, out_features=1024, bias=True), Linear(in_features=1024, out_features=1024, bias=True), Linear(in_features=1024, out_features=1024, bias=True), LayerNorm((1024,), eps=1e-05, elementwise_affine=True), CLIPMLP(
  (activation_fn): QuickGELUActivation()
  (fc1): Linear(in_features=1024, out_features=4096, bias=True)
  (fc2): Linear(in_features=4096, out_features=1024, bias=True)
), QuickGELUActivation(), Linear(in_features=1024, out_features=4096, bias=True), Linear(in_features=4096, out_features=1024, bias=True), LayerNorm((1024,), eps=1e-05, elementwise_affine=True), CLIPEncoderLayer(
  (self_attn): CLIPAttention(
    (k_proj): Linear(in_features=1024, out_features=1024, bias=True)
    (v_proj): Linear(in_features=1024, out_features=1024, bias=True)
    (q_proj): Linear(in_features=1024, out_features=1024, bias=True)
    (out_proj): Linear(in_features=1024, out_features=1024, bias=True)
  )
  (layer_norm1): LayerNorm((1024,), eps=1e-05, elementwise_affine=True)
  (mlp): CLIPMLP(
    (activation_fn): QuickGELUActivation()
    (fc1): Linear(in_features=1024, out_features=4096, bias=True)
    (fc2): Linear(in_features=4096, out_features=1024, bias=True)
  )
  (layer_norm2): LayerNorm((1024,), eps=1e-05, elementwise_affine=True)
), CLIPAttention(
  (k_proj): Linear(in_features=1024, out_features=1024, bias=True)
  (v_proj): Linear(in_features=1024, out_features=1024, bias=True)
  (q_proj): Linear(in_features=1024, out_features=1024, bias=True)
  (out_proj): Linear(in_features=1024, out_features=1024, bias=True)
), Linear(in_features=1024, out_features=1024, bias=True), Linear(in_features=1024, out_features=1024, bias=True), Linear(in_features=1024, out_features=1024, bias=True), Linear(in_features=1024, out_features=1024, bias=True), LayerNorm((1024,), eps=1e-05, elementwise_affine=True), CLIPMLP(
  (activation_fn): QuickGELUActivation()
  (fc1): Linear(in_features=1024, out_features=4096, bias=True)
  (fc2): Linear(in_features=4096, out_features=1024, bias=True)
), QuickGELUActivation(), Linear(in_features=1024, out_features=4096, bias=True), Linear(in_features=4096, out_features=1024, bias=True), LayerNorm((1024,), eps=1e-05, elementwise_affine=True), CLIPEncoderLayer(
  (self_attn): CLIPAttention(
    (k_proj): Linear(in_features=1024, out_features=1024, bias=True)
    (v_proj): Linear(in_features=1024, out_features=1024, bias=True)
    (q_proj): Linear(in_features=1024, out_features=1024, bias=True)
    (out_proj): Linear(in_features=1024, out_features=1024, bias=True)
  )
  (layer_norm1): LayerNorm((1024,), eps=1e-05, elementwise_affine=True)
  (mlp): CLIPMLP(
    (activation_fn): QuickGELUActivation()
    (fc1): Linear(in_features=1024, out_features=4096, bias=True)
    (fc2): Linear(in_features=4096, out_features=1024, bias=True)
  )
  (layer_norm2): LayerNorm((1024,), eps=1e-05, elementwise_affine=True)
), CLIPAttention(
  (k_proj): Linear(in_features=1024, out_features=1024, bias=True)
  (v_proj): Linear(in_features=1024, out_features=1024, bias=True)
  (q_proj): Linear(in_features=1024, out_features=1024, bias=True)
  (out_proj): Linear(in_features=1024, out_features=1024, bias=True)
), Linear(in_features=1024, out_features=1024, bias=True), Linear(in_features=1024, out_features=1024, bias=True), Linear(in_features=1024, out_features=1024, bias=True), Linear(in_features=1024, out_features=1024, bias=True), LayerNorm((1024,), eps=1e-05, elementwise_affine=True), CLIPMLP(
  (activation_fn): QuickGELUActivation()
  (fc1): Linear(in_features=1024, out_features=4096, bias=True)
  (fc2): Linear(in_features=4096, out_features=1024, bias=True)
), QuickGELUActivation(), Linear(in_features=1024, out_features=4096, bias=True), Linear(in_features=4096, out_features=1024, bias=True), LayerNorm((1024,), eps=1e-05, elementwise_affine=True), CLIPEncoderLayer(
  (self_attn): CLIPAttention(
    (k_proj): Linear(in_features=1024, out_features=1024, bias=True)
    (v_proj): Linear(in_features=1024, out_features=1024, bias=True)
    (q_proj): Linear(in_features=1024, out_features=1024, bias=True)
    (out_proj): Linear(in_features=1024, out_features=1024, bias=True)
  )
  (layer_norm1): LayerNorm((1024,), eps=1e-05, elementwise_affine=True)
  (mlp): CLIPMLP(
    (activation_fn): QuickGELUActivation()
    (fc1): Linear(in_features=1024, out_features=4096, bias=True)
    (fc2): Linear(in_features=4096, out_features=1024, bias=True)
  )
  (layer_norm2): LayerNorm((1024,), eps=1e-05, elementwise_affine=True)
), CLIPAttention(
  (k_proj): Linear(in_features=1024, out_features=1024, bias=True)
  (v_proj): Linear(in_features=1024, out_features=1024, bias=True)
  (q_proj): Linear(in_features=1024, out_features=1024, bias=True)
  (out_proj): Linear(in_features=1024, out_features=1024, bias=True)
), Linear(in_features=1024, out_features=1024, bias=True), Linear(in_features=1024, out_features=1024, bias=True), Linear(in_features=1024, out_features=1024, bias=True), Linear(in_features=1024, out_features=1024, bias=True), LayerNorm((1024,), eps=1e-05, elementwise_affine=True), CLIPMLP(
  (activation_fn): QuickGELUActivation()
  (fc1): Linear(in_features=1024, out_features=4096, bias=True)
  (fc2): Linear(in_features=4096, out_features=1024, bias=True)
), QuickGELUActivation(), Linear(in_features=1024, out_features=4096, bias=True), Linear(in_features=4096, out_features=1024, bias=True), LayerNorm((1024,), eps=1e-05, elementwise_affine=True), CLIPEncoderLayer(
  (self_attn): CLIPAttention(
    (k_proj): Linear(in_features=1024, out_features=1024, bias=True)
    (v_proj): Linear(in_features=1024, out_features=1024, bias=True)
    (q_proj): Linear(in_features=1024, out_features=1024, bias=True)
    (out_proj): Linear(in_features=1024, out_features=1024, bias=True)
  )
  (layer_norm1): LayerNorm((1024,), eps=1e-05, elementwise_affine=True)
  (mlp): CLIPMLP(
    (activation_fn): QuickGELUActivation()
    (fc1): Linear(in_features=1024, out_features=4096, bias=True)
    (fc2): Linear(in_features=4096, out_features=1024, bias=True)
  )
  (layer_norm2): LayerNorm((1024,), eps=1e-05, elementwise_affine=True)
), CLIPAttention(
  (k_proj): Linear(in_features=1024, out_features=1024, bias=True)
  (v_proj): Linear(in_features=1024, out_features=1024, bias=True)
  (q_proj): Linear(in_features=1024, out_features=1024, bias=True)
  (out_proj): Linear(in_features=1024, out_features=1024, bias=True)
), Linear(in_features=1024, out_features=1024, bias=True), Linear(in_features=1024, out_features=1024, bias=True), Linear(in_features=1024, out_features=1024, bias=True), Linear(in_features=1024, out_features=1024, bias=True), LayerNorm((1024,), eps=1e-05, elementwise_affine=True), CLIPMLP(
  (activation_fn): QuickGELUActivation()
  (fc1): Linear(in_features=1024, out_features=4096, bias=True)
  (fc2): Linear(in_features=4096, out_features=1024, bias=True)
), QuickGELUActivation(), Linear(in_features=1024, out_features=4096, bias=True), Linear(in_features=4096, out_features=1024, bias=True), LayerNorm((1024,), eps=1e-05, elementwise_affine=True), LayerNorm((1024,), eps=1e-05, elementwise_affine=True), Linear(in_features=1024, out_features=768, bias=False)]
